<?xml version="1.0" ?>
<net name="torch-jit-export" version="11">
	<layers>
		<layer id="0" name="image" type="Parameter" version="opset1">
			<data shape="1,3,480,864" element_type="f32"/>
			<rt_info>
				<attribute name="fused_names" version="0" value="image"/>
			</rt_info>
			<output>
				<port id="0" precision="FP32" names="image">
					<dim>1</dim>
					<dim>3</dim>
					<dim>480</dim>
					<dim>864</dim>
					<rt_info>
						<attribute name="layout" version="0" layout="[N,C,H,W]"/>
					</rt_info>
				</port>
			</output>
		</layer>
		<layer id="1" name="799" type="Const" version="opset1">
			<data element_type="f32" shape="1, 3, 4" offset="0" size="48"/>
			<rt_info>
				<attribute name="fused_names" version="0" value="799"/>
			</rt_info>
			<output>
				<port id="0" precision="FP32" names="799">
					<dim>1</dim>
					<dim>3</dim>
					<dim>4</dim>
				</port>
			</output>
		</layer>
		<layer id="2" name="Constant_7542" type="Const" version="opset1">
			<data element_type="i64" shape="" offset="48" size="8"/>
			<rt_info>
				<attribute name="fused_names" version="0" value="Constant_7542"/>
			</rt_info>
			<output>
				<port id="0" precision="I64"/>
			</output>
		</layer>
		<layer id="3" name="Constant_65284" type="Const" version="opset1">
			<data element_type="f32" shape="1, 1, 1, 1" offset="56" size="4"/>
			<output>
				<port id="0" precision="FP32">
					<dim>1</dim>
					<dim>1</dim>
					<dim>1</dim>
					<dim>1</dim>
				</port>
			</output>
		</layer>
		<layer id="4" name="Divide_12438" type="Multiply" version="opset1">
			<data auto_broadcast="numpy"/>
			<rt_info>
				<attribute name="fused_names" version="0" value="Constant_12437, Divide_12438"/>
				<attribute name="preprocessing" version="0"/>
			</rt_info>
			<input>
				<port id="0" precision="FP32">
					<dim>1</dim>
					<dim>3</dim>
					<dim>480</dim>
					<dim>864</dim>
				</port>
				<port id="1" precision="FP32">
					<dim>1</dim>
					<dim>1</dim>
					<dim>1</dim>
					<dim>1</dim>
				</port>
			</input>
			<output>
				<port id="2" precision="FP32">
					<dim>1</dim>
					<dim>3</dim>
					<dim>480</dim>
					<dim>864</dim>
				</port>
			</output>
		</layer>
		<layer id="5" name="Gather_65283" type="Const" version="opset1">
			<data element_type="f32" shape="32, 3, 3, 3" offset="60" size="3456"/>
			<output>
				<port id="0" precision="FP32">
					<dim>32</dim>
					<dim>3</dim>
					<dim>3</dim>
					<dim>3</dim>
				</port>
			</output>
		</layer>
		<layer id="6" name="Multiply_61631" type="Convolution" version="opset1">
			<data strides="2, 2" dilations="1, 1" pads_begin="1, 1" pads_end="1, 1" auto_pad="explicit"/>
			<rt_info>
				<attribute name="fused_names" version="0" value="370, 371, backbone.features.init_block.bn.bias, backbone.features.init_block.bn.running_mean, backbone.features.init_block.bn.running_var, backbone.features.init_block.bn.weight"/>
			</rt_info>
			<input>
				<port id="0" precision="FP32">
					<dim>1</dim>
					<dim>3</dim>
					<dim>480</dim>
					<dim>864</dim>
				</port>
				<port id="1" precision="FP32">
					<dim>32</dim>
					<dim>3</dim>
					<dim>3</dim>
					<dim>3</dim>
				</port>
			</input>
			<output>
				<port id="2" precision="FP32">
					<dim>1</dim>
					<dim>32</dim>
					<dim>240</dim>
					<dim>432</dim>
				</port>
			</output>
		</layer>
		<layer id="7" name="Constant_61636" type="Const" version="opset1">
			<data element_type="f32" shape="1, 32, 1, 1" offset="3516" size="128"/>
			<output>
				<port id="0" precision="FP32">
					<dim>1</dim>
					<dim>32</dim>
					<dim>1</dim>
					<dim>1</dim>
				</port>
			</output>
		</layer>
		<layer id="8" name="371" type="Add" version="opset1">
			<data auto_broadcast="numpy"/>
			<rt_info>
				<attribute name="fused_names" version="0" value="371, backbone.features.init_block.bn.bias, backbone.features.init_block.bn.running_mean, backbone.features.init_block.bn.running_var, backbone.features.init_block.bn.weight"/>
			</rt_info>
			<input>
				<port id="0" precision="FP32">
					<dim>1</dim>
					<dim>32</dim>
					<dim>240</dim>
					<dim>432</dim>
				</port>
				<port id="1" precision="FP32">
					<dim>1</dim>
					<dim>32</dim>
					<dim>1</dim>
					<dim>1</dim>
				</port>
			</input>
			<output>
				<port id="2" precision="FP32" names="371">
					<dim>1</dim>
					<dim>32</dim>
					<dim>240</dim>
					<dim>432</dim>
				</port>
			</output>
		</layer>
		<layer id="9" name="372" type="Clamp" version="opset1">
			<data min="0" max="6"/>
			<rt_info>
				<attribute name="fused_names" version="0" value="372"/>
			</rt_info>
			<input>
				<port id="0" precision="FP32">
					<dim>1</dim>
					<dim>32</dim>
					<dim>240</dim>
					<dim>432</dim>
				</port>
			</input>
			<output>
				<port id="1" precision="FP32" names="372">
					<dim>1</dim>
					<dim>32</dim>
					<dim>240</dim>
					<dim>432</dim>
				</port>
			</output>
		</layer>
		<layer id="10" name="Multiply_62031" type="Const" version="opset1">
			<data element_type="f32" shape="32, 32, 1, 1" offset="3644" size="4096"/>
			<output>
				<port id="0" precision="FP32">
					<dim>32</dim>
					<dim>32</dim>
					<dim>1</dim>
					<dim>1</dim>
				</port>
			</output>
		</layer>
		<layer id="11" name="Multiply_61638" type="Convolution" version="opset1">
			<data strides="1, 1" dilations="1, 1" pads_begin="0, 0" pads_end="0, 0" auto_pad="explicit"/>
			<rt_info>
				<attribute name="fused_names" version="0" value="373, 374, backbone.features.stage1.unit1.conv1.bn.bias, backbone.features.stage1.unit1.conv1.bn.running_mean, backbone.features.stage1.unit1.conv1.bn.running_var, backbone.features.stage1.unit1.conv1.bn.weight"/>
			</rt_info>
			<input>
				<port id="0" precision="FP32">
					<dim>1</dim>
					<dim>32</dim>
					<dim>240</dim>
					<dim>432</dim>
				</port>
				<port id="1" precision="FP32">
					<dim>32</dim>
					<dim>32</dim>
					<dim>1</dim>
					<dim>1</dim>
				</port>
			</input>
			<output>
				<port id="2" precision="FP32">
					<dim>1</dim>
					<dim>32</dim>
					<dim>240</dim>
					<dim>432</dim>
				</port>
			</output>
		</layer>
		<layer id="12" name="Constant_61643" type="Const" version="opset1">
			<data element_type="f32" shape="1, 32, 1, 1" offset="7740" size="128"/>
			<output>
				<port id="0" precision="FP32">
					<dim>1</dim>
					<dim>32</dim>
					<dim>1</dim>
					<dim>1</dim>
				</port>
			</output>
		</layer>
		<layer id="13" name="374" type="Add" version="opset1">
			<data auto_broadcast="numpy"/>
			<rt_info>
				<attribute name="fused_names" version="0" value="374, backbone.features.stage1.unit1.conv1.bn.bias, backbone.features.stage1.unit1.conv1.bn.running_mean, backbone.features.stage1.unit1.conv1.bn.running_var, backbone.features.stage1.unit1.conv1.bn.weight"/>
			</rt_info>
			<input>
				<port id="0" precision="FP32">
					<dim>1</dim>
					<dim>32</dim>
					<dim>240</dim>
					<dim>432</dim>
				</port>
				<port id="1" precision="FP32">
					<dim>1</dim>
					<dim>32</dim>
					<dim>1</dim>
					<dim>1</dim>
				</port>
			</input>
			<output>
				<port id="2" precision="FP32" names="374">
					<dim>1</dim>
					<dim>32</dim>
					<dim>240</dim>
					<dim>432</dim>
				</port>
			</output>
		</layer>
		<layer id="14" name="375" type="Clamp" version="opset1">
			<data min="0" max="6"/>
			<rt_info>
				<attribute name="fused_names" version="0" value="375"/>
			</rt_info>
			<input>
				<port id="0" precision="FP32">
					<dim>1</dim>
					<dim>32</dim>
					<dim>240</dim>
					<dim>432</dim>
				</port>
			</input>
			<output>
				<port id="1" precision="FP32" names="375">
					<dim>1</dim>
					<dim>32</dim>
					<dim>240</dim>
					<dim>432</dim>
				</port>
			</output>
		</layer>
		<layer id="15" name="Multiply_62040" type="Const" version="opset1">
			<data element_type="f32" shape="32, 1, 1, 3, 3" offset="7868" size="1152"/>
			<output>
				<port id="0" precision="FP32">
					<dim>32</dim>
					<dim>1</dim>
					<dim>1</dim>
					<dim>3</dim>
					<dim>3</dim>
				</port>
			</output>
		</layer>
		<layer id="16" name="Multiply_61645" type="GroupConvolution" version="opset1">
			<data strides="1, 1" pads_begin="1, 1" pads_end="1, 1" dilations="1, 1" auto_pad="explicit"/>
			<rt_info>
				<attribute name="fused_names" version="0" value="377, backbone.features.stage1.unit1.conv2.bn.bias, backbone.features.stage1.unit1.conv2.bn.running_mean, backbone.features.stage1.unit1.conv2.bn.running_var, backbone.features.stage1.unit1.conv2.bn.weight"/>
			</rt_info>
			<input>
				<port id="0" precision="FP32">
					<dim>1</dim>
					<dim>32</dim>
					<dim>240</dim>
					<dim>432</dim>
				</port>
				<port id="1" precision="FP32">
					<dim>32</dim>
					<dim>1</dim>
					<dim>1</dim>
					<dim>3</dim>
					<dim>3</dim>
				</port>
			</input>
			<output>
				<port id="2" precision="FP32" names="376">
					<dim>1</dim>
					<dim>32</dim>
					<dim>240</dim>
					<dim>432</dim>
				</port>
			</output>
		</layer>
		<layer id="17" name="Constant_61650" type="Const" version="opset1">
			<data element_type="f32" shape="1, 32, 1, 1" offset="9020" size="128"/>
			<output>
				<port id="0" precision="FP32">
					<dim>1</dim>
					<dim>32</dim>
					<dim>1</dim>
					<dim>1</dim>
				</port>
			</output>
		</layer>
		<layer id="18" name="377" type="Add" version="opset1">
			<data auto_broadcast="numpy"/>
			<rt_info>
				<attribute name="fused_names" version="0" value="377, backbone.features.stage1.unit1.conv2.bn.bias, backbone.features.stage1.unit1.conv2.bn.running_mean, backbone.features.stage1.unit1.conv2.bn.running_var, backbone.features.stage1.unit1.conv2.bn.weight"/>
			</rt_info>
			<input>
				<port id="0" precision="FP32">
					<dim>1</dim>
					<dim>32</dim>
					<dim>240</dim>
					<dim>432</dim>
				</port>
				<port id="1" precision="FP32">
					<dim>1</dim>
					<dim>32</dim>
					<dim>1</dim>
					<dim>1</dim>
				</port>
			</input>
			<output>
				<port id="2" precision="FP32" names="377">
					<dim>1</dim>
					<dim>32</dim>
					<dim>240</dim>
					<dim>432</dim>
				</port>
			</output>
		</layer>
		<layer id="19" name="378" type="Clamp" version="opset1">
			<data min="0" max="6"/>
			<rt_info>
				<attribute name="fused_names" version="0" value="378"/>
			</rt_info>
			<input>
				<port id="0" precision="FP32">
					<dim>1</dim>
					<dim>32</dim>
					<dim>240</dim>
					<dim>432</dim>
				</port>
			</input>
			<output>
				<port id="1" precision="FP32" names="378">
					<dim>1</dim>
					<dim>32</dim>
					<dim>240</dim>
					<dim>432</dim>
				</port>
			</output>
		</layer>
		<layer id="20" name="Multiply_62048" type="Const" version="opset1">
			<data element_type="f32" shape="16, 32, 1, 1" offset="9148" size="2048"/>
			<output>
				<port id="0" precision="FP32">
					<dim>16</dim>
					<dim>32</dim>
					<dim>1</dim>
					<dim>1</dim>
				</port>
			</output>
		</layer>
		<layer id="21" name="Multiply_61652" type="Convolution" version="opset1">
			<data strides="1, 1" dilations="1, 1" pads_begin="0, 0" pads_end="0, 0" auto_pad="explicit"/>
			<rt_info>
				<attribute name="fused_names" version="0" value="379, 380, backbone.features.stage1.unit1.conv3.bn.bias, backbone.features.stage1.unit1.conv3.bn.running_mean, backbone.features.stage1.unit1.conv3.bn.running_var, backbone.features.stage1.unit1.conv3.bn.weight"/>
			</rt_info>
			<input>
				<port id="0" precision="FP32">
					<dim>1</dim>
					<dim>32</dim>
					<dim>240</dim>
					<dim>432</dim>
				</port>
				<port id="1" precision="FP32">
					<dim>16</dim>
					<dim>32</dim>
					<dim>1</dim>
					<dim>1</dim>
				</port>
			</input>
			<output>
				<port id="2" precision="FP32">
					<dim>1</dim>
					<dim>16</dim>
					<dim>240</dim>
					<dim>432</dim>
				</port>
			</output>
		</layer>
		<layer id="22" name="Constant_61657" type="Const" version="opset1">
			<data element_type="f32" shape="1, 16, 1, 1" offset="11196" size="64"/>
			<output>
				<port id="0" precision="FP32">
					<dim>1</dim>
					<dim>16</dim>
					<dim>1</dim>
					<dim>1</dim>
				</port>
			</output>
		</layer>
		<layer id="23" name="380" type="Add" version="opset1">
			<data auto_broadcast="numpy"/>
			<rt_info>
				<attribute name="fused_names" version="0" value="380, backbone.features.stage1.unit1.conv3.bn.bias, backbone.features.stage1.unit1.conv3.bn.running_mean, backbone.features.stage1.unit1.conv3.bn.running_var, backbone.features.stage1.unit1.conv3.bn.weight"/>
			</rt_info>
			<input>
				<port id="0" precision="FP32">
					<dim>1</dim>
					<dim>16</dim>
					<dim>240</dim>
					<dim>432</dim>
				</port>
				<port id="1" precision="FP32">
					<dim>1</dim>
					<dim>16</dim>
					<dim>1</dim>
					<dim>1</dim>
				</port>
			</input>
			<output>
				<port id="2" precision="FP32" names="380">
					<dim>1</dim>
					<dim>16</dim>
					<dim>240</dim>
					<dim>432</dim>
				</port>
			</output>
		</layer>
		<layer id="24" name="Multiply_62057" type="Const" version="opset1">
			<data element_type="f32" shape="96, 16, 1, 1" offset="11260" size="6144"/>
			<output>
				<port id="0" precision="FP32">
					<dim>96</dim>
					<dim>16</dim>
					<dim>1</dim>
					<dim>1</dim>
				</port>
			</output>
		</layer>
		<layer id="25" name="Multiply_61659" type="Convolution" version="opset1">
			<data strides="1, 1" dilations="1, 1" pads_begin="0, 0" pads_end="0, 0" auto_pad="explicit"/>
			<rt_info>
				<attribute name="fused_names" version="0" value="381, 382, backbone.features.stage2.unit1.conv1.bn.bias, backbone.features.stage2.unit1.conv1.bn.running_mean, backbone.features.stage2.unit1.conv1.bn.running_var, backbone.features.stage2.unit1.conv1.bn.weight"/>
			</rt_info>
			<input>
				<port id="0" precision="FP32">
					<dim>1</dim>
					<dim>16</dim>
					<dim>240</dim>
					<dim>432</dim>
				</port>
				<port id="1" precision="FP32">
					<dim>96</dim>
					<dim>16</dim>
					<dim>1</dim>
					<dim>1</dim>
				</port>
			</input>
			<output>
				<port id="2" precision="FP32">
					<dim>1</dim>
					<dim>96</dim>
					<dim>240</dim>
					<dim>432</dim>
				</port>
			</output>
		</layer>
		<layer id="26" name="Constant_61664" type="Const" version="opset1">
			<data element_type="f32" shape="1, 96, 1, 1" offset="17404" size="384"/>
			<output>
				<port id="0" precision="FP32">
					<dim>1</dim>
					<dim>96</dim>
					<dim>1</dim>
					<dim>1</dim>
				</port>
			</output>
		</layer>
		<layer id="27" name="382" type="Add" version="opset1">
			<data auto_broadcast="numpy"/>
			<rt_info>
				<attribute name="fused_names" version="0" value="382, backbone.features.stage2.unit1.conv1.bn.bias, backbone.features.stage2.unit1.conv1.bn.running_mean, backbone.features.stage2.unit1.conv1.bn.running_var, backbone.features.stage2.unit1.conv1.bn.weight"/>
			</rt_info>
			<input>
				<port id="0" precision="FP32">
					<dim>1</dim>
					<dim>96</dim>
					<dim>240</dim>
					<dim>432</dim>
				</port>
				<port id="1" precision="FP32">
					<dim>1</dim>
					<dim>96</dim>
					<dim>1</dim>
					<dim>1</dim>
				</port>
			</input>
			<output>
				<port id="2" precision="FP32" names="382">
					<dim>1</dim>
					<dim>96</dim>
					<dim>240</dim>
					<dim>432</dim>
				</port>
			</output>
		</layer>
		<layer id="28" name="383" type="Clamp" version="opset1">
			<data min="0" max="6"/>
			<rt_info>
				<attribute name="fused_names" version="0" value="383"/>
			</rt_info>
			<input>
				<port id="0" precision="FP32">
					<dim>1</dim>
					<dim>96</dim>
					<dim>240</dim>
					<dim>432</dim>
				</port>
			</input>
			<output>
				<port id="1" precision="FP32" names="383">
					<dim>1</dim>
					<dim>96</dim>
					<dim>240</dim>
					<dim>432</dim>
				</port>
			</output>
		</layer>
		<layer id="29" name="Multiply_62066" type="Const" version="opset1">
			<data element_type="f32" shape="96, 1, 1, 3, 3" offset="17788" size="3456"/>
			<output>
				<port id="0" precision="FP32">
					<dim>96</dim>
					<dim>1</dim>
					<dim>1</dim>
					<dim>3</dim>
					<dim>3</dim>
				</port>
			</output>
		</layer>
		<layer id="30" name="Multiply_61666" type="GroupConvolution" version="opset1">
			<data strides="2, 2" pads_begin="1, 1" pads_end="1, 1" dilations="1, 1" auto_pad="explicit"/>
			<rt_info>
				<attribute name="fused_names" version="0" value="385, backbone.features.stage2.unit1.conv2.bn.bias, backbone.features.stage2.unit1.conv2.bn.running_mean, backbone.features.stage2.unit1.conv2.bn.running_var, backbone.features.stage2.unit1.conv2.bn.weight"/>
			</rt_info>
			<input>
				<port id="0" precision="FP32">
					<dim>1</dim>
					<dim>96</dim>
					<dim>240</dim>
					<dim>432</dim>
				</port>
				<port id="1" precision="FP32">
					<dim>96</dim>
					<dim>1</dim>
					<dim>1</dim>
					<dim>3</dim>
					<dim>3</dim>
				</port>
			</input>
			<output>
				<port id="2" precision="FP32" names="384">
					<dim>1</dim>
					<dim>96</dim>
					<dim>120</dim>
					<dim>216</dim>
				</port>
			</output>
		</layer>
		<layer id="31" name="Constant_61671" type="Const" version="opset1">
			<data element_type="f32" shape="1, 96, 1, 1" offset="21244" size="384"/>
			<output>
				<port id="0" precision="FP32">
					<dim>1</dim>
					<dim>96</dim>
					<dim>1</dim>
					<dim>1</dim>
				</port>
			</output>
		</layer>
		<layer id="32" name="385" type="Add" version="opset1">
			<data auto_broadcast="numpy"/>
			<rt_info>
				<attribute name="fused_names" version="0" value="385, backbone.features.stage2.unit1.conv2.bn.bias, backbone.features.stage2.unit1.conv2.bn.running_mean, backbone.features.stage2.unit1.conv2.bn.running_var, backbone.features.stage2.unit1.conv2.bn.weight"/>
			</rt_info>
			<input>
				<port id="0" precision="FP32">
					<dim>1</dim>
					<dim>96</dim>
					<dim>120</dim>
					<dim>216</dim>
				</port>
				<port id="1" precision="FP32">
					<dim>1</dim>
					<dim>96</dim>
					<dim>1</dim>
					<dim>1</dim>
				</port>
			</input>
			<output>
				<port id="2" precision="FP32" names="385">
					<dim>1</dim>
					<dim>96</dim>
					<dim>120</dim>
					<dim>216</dim>
				</port>
			</output>
		</layer>
		<layer id="33" name="386" type="Clamp" version="opset1">
			<data min="0" max="6"/>
			<rt_info>
				<attribute name="fused_names" version="0" value="386"/>
			</rt_info>
			<input>
				<port id="0" precision="FP32">
					<dim>1</dim>
					<dim>96</dim>
					<dim>120</dim>
					<dim>216</dim>
				</port>
			</input>
			<output>
				<port id="1" precision="FP32" names="386">
					<dim>1</dim>
					<dim>96</dim>
					<dim>120</dim>
					<dim>216</dim>
				</port>
			</output>
		</layer>
		<layer id="34" name="Multiply_62074" type="Const" version="opset1">
			<data element_type="f32" shape="24, 96, 1, 1" offset="21628" size="9216"/>
			<output>
				<port id="0" precision="FP32">
					<dim>24</dim>
					<dim>96</dim>
					<dim>1</dim>
					<dim>1</dim>
				</port>
			</output>
		</layer>
		<layer id="35" name="Multiply_61673" type="Convolution" version="opset1">
			<data strides="1, 1" dilations="1, 1" pads_begin="0, 0" pads_end="0, 0" auto_pad="explicit"/>
			<rt_info>
				<attribute name="fused_names" version="0" value="387, 388, backbone.features.stage2.unit1.conv3.bn.bias, backbone.features.stage2.unit1.conv3.bn.running_mean, backbone.features.stage2.unit1.conv3.bn.running_var, backbone.features.stage2.unit1.conv3.bn.weight"/>
			</rt_info>
			<input>
				<port id="0" precision="FP32">
					<dim>1</dim>
					<dim>96</dim>
					<dim>120</dim>
					<dim>216</dim>
				</port>
				<port id="1" precision="FP32">
					<dim>24</dim>
					<dim>96</dim>
					<dim>1</dim>
					<dim>1</dim>
				</port>
			</input>
			<output>
				<port id="2" precision="FP32">
					<dim>1</dim>
					<dim>24</dim>
					<dim>120</dim>
					<dim>216</dim>
				</port>
			</output>
		</layer>
		<layer id="36" name="Constant_61678" type="Const" version="opset1">
			<data element_type="f32" shape="1, 24, 1, 1" offset="30844" size="96"/>
			<output>
				<port id="0" precision="FP32">
					<dim>1</dim>
					<dim>24</dim>
					<dim>1</dim>
					<dim>1</dim>
				</port>
			</output>
		</layer>
		<layer id="37" name="388" type="Add" version="opset1">
			<data auto_broadcast="numpy"/>
			<rt_info>
				<attribute name="fused_names" version="0" value="388, backbone.features.stage2.unit1.conv3.bn.bias, backbone.features.stage2.unit1.conv3.bn.running_mean, backbone.features.stage2.unit1.conv3.bn.running_var, backbone.features.stage2.unit1.conv3.bn.weight"/>
			</rt_info>
			<input>
				<port id="0" precision="FP32">
					<dim>1</dim>
					<dim>24</dim>
					<dim>120</dim>
					<dim>216</dim>
				</port>
				<port id="1" precision="FP32">
					<dim>1</dim>
					<dim>24</dim>
					<dim>1</dim>
					<dim>1</dim>
				</port>
			</input>
			<output>
				<port id="2" precision="FP32" names="388">
					<dim>1</dim>
					<dim>24</dim>
					<dim>120</dim>
					<dim>216</dim>
				</port>
			</output>
		</layer>
		<layer id="38" name="Multiply_62083" type="Const" version="opset1">
			<data element_type="f32" shape="144, 24, 1, 1" offset="30940" size="13824"/>
			<output>
				<port id="0" precision="FP32">
					<dim>144</dim>
					<dim>24</dim>
					<dim>1</dim>
					<dim>1</dim>
				</port>
			</output>
		</layer>
		<layer id="39" name="Multiply_61680" type="Convolution" version="opset1">
			<data strides="1, 1" dilations="1, 1" pads_begin="0, 0" pads_end="0, 0" auto_pad="explicit"/>
			<rt_info>
				<attribute name="fused_names" version="0" value="389, 390, backbone.features.stage2.unit2.conv1.bn.bias, backbone.features.stage2.unit2.conv1.bn.running_mean, backbone.features.stage2.unit2.conv1.bn.running_var, backbone.features.stage2.unit2.conv1.bn.weight"/>
			</rt_info>
			<input>
				<port id="0" precision="FP32">
					<dim>1</dim>
					<dim>24</dim>
					<dim>120</dim>
					<dim>216</dim>
				</port>
				<port id="1" precision="FP32">
					<dim>144</dim>
					<dim>24</dim>
					<dim>1</dim>
					<dim>1</dim>
				</port>
			</input>
			<output>
				<port id="2" precision="FP32">
					<dim>1</dim>
					<dim>144</dim>
					<dim>120</dim>
					<dim>216</dim>
				</port>
			</output>
		</layer>
		<layer id="40" name="Constant_61685" type="Const" version="opset1">
			<data element_type="f32" shape="1, 144, 1, 1" offset="44764" size="576"/>
			<output>
				<port id="0" precision="FP32">
					<dim>1</dim>
					<dim>144</dim>
					<dim>1</dim>
					<dim>1</dim>
				</port>
			</output>
		</layer>
		<layer id="41" name="390" type="Add" version="opset1">
			<data auto_broadcast="numpy"/>
			<rt_info>
				<attribute name="fused_names" version="0" value="390, backbone.features.stage2.unit2.conv1.bn.bias, backbone.features.stage2.unit2.conv1.bn.running_mean, backbone.features.stage2.unit2.conv1.bn.running_var, backbone.features.stage2.unit2.conv1.bn.weight"/>
			</rt_info>
			<input>
				<port id="0" precision="FP32">
					<dim>1</dim>
					<dim>144</dim>
					<dim>120</dim>
					<dim>216</dim>
				</port>
				<port id="1" precision="FP32">
					<dim>1</dim>
					<dim>144</dim>
					<dim>1</dim>
					<dim>1</dim>
				</port>
			</input>
			<output>
				<port id="2" precision="FP32" names="390">
					<dim>1</dim>
					<dim>144</dim>
					<dim>120</dim>
					<dim>216</dim>
				</port>
			</output>
		</layer>
		<layer id="42" name="391" type="Clamp" version="opset1">
			<data min="0" max="6"/>
			<rt_info>
				<attribute name="fused_names" version="0" value="391"/>
			</rt_info>
			<input>
				<port id="0" precision="FP32">
					<dim>1</dim>
					<dim>144</dim>
					<dim>120</dim>
					<dim>216</dim>
				</port>
			</input>
			<output>
				<port id="1" precision="FP32" names="391">
					<dim>1</dim>
					<dim>144</dim>
					<dim>120</dim>
					<dim>216</dim>
				</port>
			</output>
		</layer>
		<layer id="43" name="Multiply_62092" type="Const" version="opset1">
			<data element_type="f32" shape="144, 1, 1, 3, 3" offset="45340" size="5184"/>
			<output>
				<port id="0" precision="FP32">
					<dim>144</dim>
					<dim>1</dim>
					<dim>1</dim>
					<dim>3</dim>
					<dim>3</dim>
				</port>
			</output>
		</layer>
		<layer id="44" name="Multiply_61687" type="GroupConvolution" version="opset1">
			<data strides="1, 1" pads_begin="1, 1" pads_end="1, 1" dilations="1, 1" auto_pad="explicit"/>
			<rt_info>
				<attribute name="fused_names" version="0" value="393, backbone.features.stage2.unit2.conv2.bn.bias, backbone.features.stage2.unit2.conv2.bn.running_mean, backbone.features.stage2.unit2.conv2.bn.running_var, backbone.features.stage2.unit2.conv2.bn.weight"/>
			</rt_info>
			<input>
				<port id="0" precision="FP32">
					<dim>1</dim>
					<dim>144</dim>
					<dim>120</dim>
					<dim>216</dim>
				</port>
				<port id="1" precision="FP32">
					<dim>144</dim>
					<dim>1</dim>
					<dim>1</dim>
					<dim>3</dim>
					<dim>3</dim>
				</port>
			</input>
			<output>
				<port id="2" precision="FP32" names="392">
					<dim>1</dim>
					<dim>144</dim>
					<dim>120</dim>
					<dim>216</dim>
				</port>
			</output>
		</layer>
		<layer id="45" name="Constant_61692" type="Const" version="opset1">
			<data element_type="f32" shape="1, 144, 1, 1" offset="50524" size="576"/>
			<output>
				<port id="0" precision="FP32">
					<dim>1</dim>
					<dim>144</dim>
					<dim>1</dim>
					<dim>1</dim>
				</port>
			</output>
		</layer>
		<layer id="46" name="393" type="Add" version="opset1">
			<data auto_broadcast="numpy"/>
			<rt_info>
				<attribute name="fused_names" version="0" value="393, backbone.features.stage2.unit2.conv2.bn.bias, backbone.features.stage2.unit2.conv2.bn.running_mean, backbone.features.stage2.unit2.conv2.bn.running_var, backbone.features.stage2.unit2.conv2.bn.weight"/>
			</rt_info>
			<input>
				<port id="0" precision="FP32">
					<dim>1</dim>
					<dim>144</dim>
					<dim>120</dim>
					<dim>216</dim>
				</port>
				<port id="1" precision="FP32">
					<dim>1</dim>
					<dim>144</dim>
					<dim>1</dim>
					<dim>1</dim>
				</port>
			</input>
			<output>
				<port id="2" precision="FP32" names="393">
					<dim>1</dim>
					<dim>144</dim>
					<dim>120</dim>
					<dim>216</dim>
				</port>
			</output>
		</layer>
		<layer id="47" name="394" type="Clamp" version="opset1">
			<data min="0" max="6"/>
			<rt_info>
				<attribute name="fused_names" version="0" value="394"/>
			</rt_info>
			<input>
				<port id="0" precision="FP32">
					<dim>1</dim>
					<dim>144</dim>
					<dim>120</dim>
					<dim>216</dim>
				</port>
			</input>
			<output>
				<port id="1" precision="FP32" names="394">
					<dim>1</dim>
					<dim>144</dim>
					<dim>120</dim>
					<dim>216</dim>
				</port>
			</output>
		</layer>
		<layer id="48" name="Multiply_62100" type="Const" version="opset1">
			<data element_type="f32" shape="24, 144, 1, 1" offset="51100" size="13824"/>
			<output>
				<port id="0" precision="FP32">
					<dim>24</dim>
					<dim>144</dim>
					<dim>1</dim>
					<dim>1</dim>
				</port>
			</output>
		</layer>
		<layer id="49" name="Multiply_61694" type="Convolution" version="opset1">
			<data strides="1, 1" dilations="1, 1" pads_begin="0, 0" pads_end="0, 0" auto_pad="explicit"/>
			<rt_info>
				<attribute name="fused_names" version="0" value="395, 396, backbone.features.stage2.unit2.conv3.bn.bias, backbone.features.stage2.unit2.conv3.bn.running_mean, backbone.features.stage2.unit2.conv3.bn.running_var, backbone.features.stage2.unit2.conv3.bn.weight"/>
			</rt_info>
			<input>
				<port id="0" precision="FP32">
					<dim>1</dim>
					<dim>144</dim>
					<dim>120</dim>
					<dim>216</dim>
				</port>
				<port id="1" precision="FP32">
					<dim>24</dim>
					<dim>144</dim>
					<dim>1</dim>
					<dim>1</dim>
				</port>
			</input>
			<output>
				<port id="2" precision="FP32">
					<dim>1</dim>
					<dim>24</dim>
					<dim>120</dim>
					<dim>216</dim>
				</port>
			</output>
		</layer>
		<layer id="50" name="Constant_61699" type="Const" version="opset1">
			<data element_type="f32" shape="1, 24, 1, 1" offset="64924" size="96"/>
			<output>
				<port id="0" precision="FP32">
					<dim>1</dim>
					<dim>24</dim>
					<dim>1</dim>
					<dim>1</dim>
				</port>
			</output>
		</layer>
		<layer id="51" name="396" type="Add" version="opset1">
			<data auto_broadcast="numpy"/>
			<rt_info>
				<attribute name="fused_names" version="0" value="396, backbone.features.stage2.unit2.conv3.bn.bias, backbone.features.stage2.unit2.conv3.bn.running_mean, backbone.features.stage2.unit2.conv3.bn.running_var, backbone.features.stage2.unit2.conv3.bn.weight"/>
			</rt_info>
			<input>
				<port id="0" precision="FP32">
					<dim>1</dim>
					<dim>24</dim>
					<dim>120</dim>
					<dim>216</dim>
				</port>
				<port id="1" precision="FP32">
					<dim>1</dim>
					<dim>24</dim>
					<dim>1</dim>
					<dim>1</dim>
				</port>
			</input>
			<output>
				<port id="2" precision="FP32" names="396">
					<dim>1</dim>
					<dim>24</dim>
					<dim>120</dim>
					<dim>216</dim>
				</port>
			</output>
		</layer>
		<layer id="52" name="397" type="Add" version="opset1">
			<data auto_broadcast="numpy"/>
			<rt_info>
				<attribute name="fused_names" version="0" value="397"/>
			</rt_info>
			<input>
				<port id="0" precision="FP32">
					<dim>1</dim>
					<dim>24</dim>
					<dim>120</dim>
					<dim>216</dim>
				</port>
				<port id="1" precision="FP32">
					<dim>1</dim>
					<dim>24</dim>
					<dim>120</dim>
					<dim>216</dim>
				</port>
			</input>
			<output>
				<port id="2" precision="FP32" names="397">
					<dim>1</dim>
					<dim>24</dim>
					<dim>120</dim>
					<dim>216</dim>
				</port>
			</output>
		</layer>
		<layer id="53" name="Multiply_62109" type="Const" version="opset1">
			<data element_type="f32" shape="144, 24, 1, 1" offset="65020" size="13824"/>
			<output>
				<port id="0" precision="FP32">
					<dim>144</dim>
					<dim>24</dim>
					<dim>1</dim>
					<dim>1</dim>
				</port>
			</output>
		</layer>
		<layer id="54" name="Multiply_61701" type="Convolution" version="opset1">
			<data strides="1, 1" dilations="1, 1" pads_begin="0, 0" pads_end="0, 0" auto_pad="explicit"/>
			<rt_info>
				<attribute name="fused_names" version="0" value="398, 399, backbone.features.stage3.unit1.conv1.bn.bias, backbone.features.stage3.unit1.conv1.bn.running_mean, backbone.features.stage3.unit1.conv1.bn.running_var, backbone.features.stage3.unit1.conv1.bn.weight"/>
			</rt_info>
			<input>
				<port id="0" precision="FP32">
					<dim>1</dim>
					<dim>24</dim>
					<dim>120</dim>
					<dim>216</dim>
				</port>
				<port id="1" precision="FP32">
					<dim>144</dim>
					<dim>24</dim>
					<dim>1</dim>
					<dim>1</dim>
				</port>
			</input>
			<output>
				<port id="2" precision="FP32">
					<dim>1</dim>
					<dim>144</dim>
					<dim>120</dim>
					<dim>216</dim>
				</port>
			</output>
		</layer>
		<layer id="55" name="Constant_61706" type="Const" version="opset1">
			<data element_type="f32" shape="1, 144, 1, 1" offset="78844" size="576"/>
			<output>
				<port id="0" precision="FP32">
					<dim>1</dim>
					<dim>144</dim>
					<dim>1</dim>
					<dim>1</dim>
				</port>
			</output>
		</layer>
		<layer id="56" name="399" type="Add" version="opset1">
			<data auto_broadcast="numpy"/>
			<rt_info>
				<attribute name="fused_names" version="0" value="399, backbone.features.stage3.unit1.conv1.bn.bias, backbone.features.stage3.unit1.conv1.bn.running_mean, backbone.features.stage3.unit1.conv1.bn.running_var, backbone.features.stage3.unit1.conv1.bn.weight"/>
			</rt_info>
			<input>
				<port id="0" precision="FP32">
					<dim>1</dim>
					<dim>144</dim>
					<dim>120</dim>
					<dim>216</dim>
				</port>
				<port id="1" precision="FP32">
					<dim>1</dim>
					<dim>144</dim>
					<dim>1</dim>
					<dim>1</dim>
				</port>
			</input>
			<output>
				<port id="2" precision="FP32" names="399">
					<dim>1</dim>
					<dim>144</dim>
					<dim>120</dim>
					<dim>216</dim>
				</port>
			</output>
		</layer>
		<layer id="57" name="400" type="Clamp" version="opset1">
			<data min="0" max="6"/>
			<rt_info>
				<attribute name="fused_names" version="0" value="400"/>
			</rt_info>
			<input>
				<port id="0" precision="FP32">
					<dim>1</dim>
					<dim>144</dim>
					<dim>120</dim>
					<dim>216</dim>
				</port>
			</input>
			<output>
				<port id="1" precision="FP32" names="400">
					<dim>1</dim>
					<dim>144</dim>
					<dim>120</dim>
					<dim>216</dim>
				</port>
			</output>
		</layer>
		<layer id="58" name="Multiply_62118" type="Const" version="opset1">
			<data element_type="f32" shape="144, 1, 1, 3, 3" offset="79420" size="5184"/>
			<output>
				<port id="0" precision="FP32">
					<dim>144</dim>
					<dim>1</dim>
					<dim>1</dim>
					<dim>3</dim>
					<dim>3</dim>
				</port>
			</output>
		</layer>
		<layer id="59" name="Multiply_61708" type="GroupConvolution" version="opset1">
			<data strides="2, 2" pads_begin="1, 1" pads_end="1, 1" dilations="1, 1" auto_pad="explicit"/>
			<rt_info>
				<attribute name="fused_names" version="0" value="402, backbone.features.stage3.unit1.conv2.bn.bias, backbone.features.stage3.unit1.conv2.bn.running_mean, backbone.features.stage3.unit1.conv2.bn.running_var, backbone.features.stage3.unit1.conv2.bn.weight"/>
			</rt_info>
			<input>
				<port id="0" precision="FP32">
					<dim>1</dim>
					<dim>144</dim>
					<dim>120</dim>
					<dim>216</dim>
				</port>
				<port id="1" precision="FP32">
					<dim>144</dim>
					<dim>1</dim>
					<dim>1</dim>
					<dim>3</dim>
					<dim>3</dim>
				</port>
			</input>
			<output>
				<port id="2" precision="FP32" names="401">
					<dim>1</dim>
					<dim>144</dim>
					<dim>60</dim>
					<dim>108</dim>
				</port>
			</output>
		</layer>
		<layer id="60" name="Constant_61713" type="Const" version="opset1">
			<data element_type="f32" shape="1, 144, 1, 1" offset="84604" size="576"/>
			<output>
				<port id="0" precision="FP32">
					<dim>1</dim>
					<dim>144</dim>
					<dim>1</dim>
					<dim>1</dim>
				</port>
			</output>
		</layer>
		<layer id="61" name="402" type="Add" version="opset1">
			<data auto_broadcast="numpy"/>
			<rt_info>
				<attribute name="fused_names" version="0" value="402, backbone.features.stage3.unit1.conv2.bn.bias, backbone.features.stage3.unit1.conv2.bn.running_mean, backbone.features.stage3.unit1.conv2.bn.running_var, backbone.features.stage3.unit1.conv2.bn.weight"/>
			</rt_info>
			<input>
				<port id="0" precision="FP32">
					<dim>1</dim>
					<dim>144</dim>
					<dim>60</dim>
					<dim>108</dim>
				</port>
				<port id="1" precision="FP32">
					<dim>1</dim>
					<dim>144</dim>
					<dim>1</dim>
					<dim>1</dim>
				</port>
			</input>
			<output>
				<port id="2" precision="FP32" names="402">
					<dim>1</dim>
					<dim>144</dim>
					<dim>60</dim>
					<dim>108</dim>
				</port>
			</output>
		</layer>
		<layer id="62" name="403" type="Clamp" version="opset1">
			<data min="0" max="6"/>
			<rt_info>
				<attribute name="fused_names" version="0" value="403"/>
			</rt_info>
			<input>
				<port id="0" precision="FP32">
					<dim>1</dim>
					<dim>144</dim>
					<dim>60</dim>
					<dim>108</dim>
				</port>
			</input>
			<output>
				<port id="1" precision="FP32" names="403">
					<dim>1</dim>
					<dim>144</dim>
					<dim>60</dim>
					<dim>108</dim>
				</port>
			</output>
		</layer>
		<layer id="63" name="Multiply_62126" type="Const" version="opset1">
			<data element_type="f32" shape="32, 144, 1, 1" offset="85180" size="18432"/>
			<output>
				<port id="0" precision="FP32">
					<dim>32</dim>
					<dim>144</dim>
					<dim>1</dim>
					<dim>1</dim>
				</port>
			</output>
		</layer>
		<layer id="64" name="Multiply_61715" type="Convolution" version="opset1">
			<data strides="1, 1" dilations="1, 1" pads_begin="0, 0" pads_end="0, 0" auto_pad="explicit"/>
			<rt_info>
				<attribute name="fused_names" version="0" value="404, 405, backbone.features.stage3.unit1.conv3.bn.bias, backbone.features.stage3.unit1.conv3.bn.running_mean, backbone.features.stage3.unit1.conv3.bn.running_var, backbone.features.stage3.unit1.conv3.bn.weight"/>
			</rt_info>
			<input>
				<port id="0" precision="FP32">
					<dim>1</dim>
					<dim>144</dim>
					<dim>60</dim>
					<dim>108</dim>
				</port>
				<port id="1" precision="FP32">
					<dim>32</dim>
					<dim>144</dim>
					<dim>1</dim>
					<dim>1</dim>
				</port>
			</input>
			<output>
				<port id="2" precision="FP32">
					<dim>1</dim>
					<dim>32</dim>
					<dim>60</dim>
					<dim>108</dim>
				</port>
			</output>
		</layer>
		<layer id="65" name="Constant_61720" type="Const" version="opset1">
			<data element_type="f32" shape="1, 32, 1, 1" offset="103612" size="128"/>
			<output>
				<port id="0" precision="FP32">
					<dim>1</dim>
					<dim>32</dim>
					<dim>1</dim>
					<dim>1</dim>
				</port>
			</output>
		</layer>
		<layer id="66" name="405" type="Add" version="opset1">
			<data auto_broadcast="numpy"/>
			<rt_info>
				<attribute name="fused_names" version="0" value="405, backbone.features.stage3.unit1.conv3.bn.bias, backbone.features.stage3.unit1.conv3.bn.running_mean, backbone.features.stage3.unit1.conv3.bn.running_var, backbone.features.stage3.unit1.conv3.bn.weight"/>
			</rt_info>
			<input>
				<port id="0" precision="FP32">
					<dim>1</dim>
					<dim>32</dim>
					<dim>60</dim>
					<dim>108</dim>
				</port>
				<port id="1" precision="FP32">
					<dim>1</dim>
					<dim>32</dim>
					<dim>1</dim>
					<dim>1</dim>
				</port>
			</input>
			<output>
				<port id="2" precision="FP32" names="405">
					<dim>1</dim>
					<dim>32</dim>
					<dim>60</dim>
					<dim>108</dim>
				</port>
			</output>
		</layer>
		<layer id="67" name="Multiply_62135" type="Const" version="opset1">
			<data element_type="f32" shape="192, 32, 1, 1" offset="103740" size="24576"/>
			<output>
				<port id="0" precision="FP32">
					<dim>192</dim>
					<dim>32</dim>
					<dim>1</dim>
					<dim>1</dim>
				</port>
			</output>
		</layer>
		<layer id="68" name="Multiply_61722" type="Convolution" version="opset1">
			<data strides="1, 1" dilations="1, 1" pads_begin="0, 0" pads_end="0, 0" auto_pad="explicit"/>
			<rt_info>
				<attribute name="fused_names" version="0" value="406, 407, backbone.features.stage3.unit2.conv1.bn.bias, backbone.features.stage3.unit2.conv1.bn.running_mean, backbone.features.stage3.unit2.conv1.bn.running_var, backbone.features.stage3.unit2.conv1.bn.weight"/>
			</rt_info>
			<input>
				<port id="0" precision="FP32">
					<dim>1</dim>
					<dim>32</dim>
					<dim>60</dim>
					<dim>108</dim>
				</port>
				<port id="1" precision="FP32">
					<dim>192</dim>
					<dim>32</dim>
					<dim>1</dim>
					<dim>1</dim>
				</port>
			</input>
			<output>
				<port id="2" precision="FP32">
					<dim>1</dim>
					<dim>192</dim>
					<dim>60</dim>
					<dim>108</dim>
				</port>
			</output>
		</layer>
		<layer id="69" name="Constant_61727" type="Const" version="opset1">
			<data element_type="f32" shape="1, 192, 1, 1" offset="128316" size="768"/>
			<output>
				<port id="0" precision="FP32">
					<dim>1</dim>
					<dim>192</dim>
					<dim>1</dim>
					<dim>1</dim>
				</port>
			</output>
		</layer>
		<layer id="70" name="407" type="Add" version="opset1">
			<data auto_broadcast="numpy"/>
			<rt_info>
				<attribute name="fused_names" version="0" value="407, backbone.features.stage3.unit2.conv1.bn.bias, backbone.features.stage3.unit2.conv1.bn.running_mean, backbone.features.stage3.unit2.conv1.bn.running_var, backbone.features.stage3.unit2.conv1.bn.weight"/>
			</rt_info>
			<input>
				<port id="0" precision="FP32">
					<dim>1</dim>
					<dim>192</dim>
					<dim>60</dim>
					<dim>108</dim>
				</port>
				<port id="1" precision="FP32">
					<dim>1</dim>
					<dim>192</dim>
					<dim>1</dim>
					<dim>1</dim>
				</port>
			</input>
			<output>
				<port id="2" precision="FP32" names="407">
					<dim>1</dim>
					<dim>192</dim>
					<dim>60</dim>
					<dim>108</dim>
				</port>
			</output>
		</layer>
		<layer id="71" name="408" type="Clamp" version="opset1">
			<data min="0" max="6"/>
			<rt_info>
				<attribute name="fused_names" version="0" value="408"/>
			</rt_info>
			<input>
				<port id="0" precision="FP32">
					<dim>1</dim>
					<dim>192</dim>
					<dim>60</dim>
					<dim>108</dim>
				</port>
			</input>
			<output>
				<port id="1" precision="FP32" names="408">
					<dim>1</dim>
					<dim>192</dim>
					<dim>60</dim>
					<dim>108</dim>
				</port>
			</output>
		</layer>
		<layer id="72" name="Multiply_62144" type="Const" version="opset1">
			<data element_type="f32" shape="192, 1, 1, 3, 3" offset="129084" size="6912"/>
			<output>
				<port id="0" precision="FP32">
					<dim>192</dim>
					<dim>1</dim>
					<dim>1</dim>
					<dim>3</dim>
					<dim>3</dim>
				</port>
			</output>
		</layer>
		<layer id="73" name="Multiply_61729" type="GroupConvolution" version="opset1">
			<data strides="1, 1" pads_begin="1, 1" pads_end="1, 1" dilations="1, 1" auto_pad="explicit"/>
			<rt_info>
				<attribute name="fused_names" version="0" value="410, backbone.features.stage3.unit2.conv2.bn.bias, backbone.features.stage3.unit2.conv2.bn.running_mean, backbone.features.stage3.unit2.conv2.bn.running_var, backbone.features.stage3.unit2.conv2.bn.weight"/>
			</rt_info>
			<input>
				<port id="0" precision="FP32">
					<dim>1</dim>
					<dim>192</dim>
					<dim>60</dim>
					<dim>108</dim>
				</port>
				<port id="1" precision="FP32">
					<dim>192</dim>
					<dim>1</dim>
					<dim>1</dim>
					<dim>3</dim>
					<dim>3</dim>
				</port>
			</input>
			<output>
				<port id="2" precision="FP32" names="409">
					<dim>1</dim>
					<dim>192</dim>
					<dim>60</dim>
					<dim>108</dim>
				</port>
			</output>
		</layer>
		<layer id="74" name="Constant_61734" type="Const" version="opset1">
			<data element_type="f32" shape="1, 192, 1, 1" offset="135996" size="768"/>
			<output>
				<port id="0" precision="FP32">
					<dim>1</dim>
					<dim>192</dim>
					<dim>1</dim>
					<dim>1</dim>
				</port>
			</output>
		</layer>
		<layer id="75" name="410" type="Add" version="opset1">
			<data auto_broadcast="numpy"/>
			<rt_info>
				<attribute name="fused_names" version="0" value="410, backbone.features.stage3.unit2.conv2.bn.bias, backbone.features.stage3.unit2.conv2.bn.running_mean, backbone.features.stage3.unit2.conv2.bn.running_var, backbone.features.stage3.unit2.conv2.bn.weight"/>
			</rt_info>
			<input>
				<port id="0" precision="FP32">
					<dim>1</dim>
					<dim>192</dim>
					<dim>60</dim>
					<dim>108</dim>
				</port>
				<port id="1" precision="FP32">
					<dim>1</dim>
					<dim>192</dim>
					<dim>1</dim>
					<dim>1</dim>
				</port>
			</input>
			<output>
				<port id="2" precision="FP32" names="410">
					<dim>1</dim>
					<dim>192</dim>
					<dim>60</dim>
					<dim>108</dim>
				</port>
			</output>
		</layer>
		<layer id="76" name="411" type="Clamp" version="opset1">
			<data min="0" max="6"/>
			<rt_info>
				<attribute name="fused_names" version="0" value="411"/>
			</rt_info>
			<input>
				<port id="0" precision="FP32">
					<dim>1</dim>
					<dim>192</dim>
					<dim>60</dim>
					<dim>108</dim>
				</port>
			</input>
			<output>
				<port id="1" precision="FP32" names="411">
					<dim>1</dim>
					<dim>192</dim>
					<dim>60</dim>
					<dim>108</dim>
				</port>
			</output>
		</layer>
		<layer id="77" name="Multiply_62152" type="Const" version="opset1">
			<data element_type="f32" shape="32, 192, 1, 1" offset="136764" size="24576"/>
			<output>
				<port id="0" precision="FP32">
					<dim>32</dim>
					<dim>192</dim>
					<dim>1</dim>
					<dim>1</dim>
				</port>
			</output>
		</layer>
		<layer id="78" name="Multiply_61736" type="Convolution" version="opset1">
			<data strides="1, 1" dilations="1, 1" pads_begin="0, 0" pads_end="0, 0" auto_pad="explicit"/>
			<rt_info>
				<attribute name="fused_names" version="0" value="412, 413, backbone.features.stage3.unit2.conv3.bn.bias, backbone.features.stage3.unit2.conv3.bn.running_mean, backbone.features.stage3.unit2.conv3.bn.running_var, backbone.features.stage3.unit2.conv3.bn.weight"/>
			</rt_info>
			<input>
				<port id="0" precision="FP32">
					<dim>1</dim>
					<dim>192</dim>
					<dim>60</dim>
					<dim>108</dim>
				</port>
				<port id="1" precision="FP32">
					<dim>32</dim>
					<dim>192</dim>
					<dim>1</dim>
					<dim>1</dim>
				</port>
			</input>
			<output>
				<port id="2" precision="FP32">
					<dim>1</dim>
					<dim>32</dim>
					<dim>60</dim>
					<dim>108</dim>
				</port>
			</output>
		</layer>
		<layer id="79" name="Constant_61741" type="Const" version="opset1">
			<data element_type="f32" shape="1, 32, 1, 1" offset="161340" size="128"/>
			<output>
				<port id="0" precision="FP32">
					<dim>1</dim>
					<dim>32</dim>
					<dim>1</dim>
					<dim>1</dim>
				</port>
			</output>
		</layer>
		<layer id="80" name="413" type="Add" version="opset1">
			<data auto_broadcast="numpy"/>
			<rt_info>
				<attribute name="fused_names" version="0" value="413, backbone.features.stage3.unit2.conv3.bn.bias, backbone.features.stage3.unit2.conv3.bn.running_mean, backbone.features.stage3.unit2.conv3.bn.running_var, backbone.features.stage3.unit2.conv3.bn.weight"/>
			</rt_info>
			<input>
				<port id="0" precision="FP32">
					<dim>1</dim>
					<dim>32</dim>
					<dim>60</dim>
					<dim>108</dim>
				</port>
				<port id="1" precision="FP32">
					<dim>1</dim>
					<dim>32</dim>
					<dim>1</dim>
					<dim>1</dim>
				</port>
			</input>
			<output>
				<port id="2" precision="FP32" names="413">
					<dim>1</dim>
					<dim>32</dim>
					<dim>60</dim>
					<dim>108</dim>
				</port>
			</output>
		</layer>
		<layer id="81" name="414" type="Add" version="opset1">
			<data auto_broadcast="numpy"/>
			<rt_info>
				<attribute name="fused_names" version="0" value="414"/>
			</rt_info>
			<input>
				<port id="0" precision="FP32">
					<dim>1</dim>
					<dim>32</dim>
					<dim>60</dim>
					<dim>108</dim>
				</port>
				<port id="1" precision="FP32">
					<dim>1</dim>
					<dim>32</dim>
					<dim>60</dim>
					<dim>108</dim>
				</port>
			</input>
			<output>
				<port id="2" precision="FP32" names="414">
					<dim>1</dim>
					<dim>32</dim>
					<dim>60</dim>
					<dim>108</dim>
				</port>
			</output>
		</layer>
		<layer id="82" name="Multiply_62161" type="Const" version="opset1">
			<data element_type="f32" shape="192, 32, 1, 1" offset="161468" size="24576"/>
			<output>
				<port id="0" precision="FP32">
					<dim>192</dim>
					<dim>32</dim>
					<dim>1</dim>
					<dim>1</dim>
				</port>
			</output>
		</layer>
		<layer id="83" name="Multiply_61743" type="Convolution" version="opset1">
			<data strides="1, 1" dilations="1, 1" pads_begin="0, 0" pads_end="0, 0" auto_pad="explicit"/>
			<rt_info>
				<attribute name="fused_names" version="0" value="415, 416, backbone.features.stage3.unit3.conv1.bn.bias, backbone.features.stage3.unit3.conv1.bn.running_mean, backbone.features.stage3.unit3.conv1.bn.running_var, backbone.features.stage3.unit3.conv1.bn.weight"/>
			</rt_info>
			<input>
				<port id="0" precision="FP32">
					<dim>1</dim>
					<dim>32</dim>
					<dim>60</dim>
					<dim>108</dim>
				</port>
				<port id="1" precision="FP32">
					<dim>192</dim>
					<dim>32</dim>
					<dim>1</dim>
					<dim>1</dim>
				</port>
			</input>
			<output>
				<port id="2" precision="FP32">
					<dim>1</dim>
					<dim>192</dim>
					<dim>60</dim>
					<dim>108</dim>
				</port>
			</output>
		</layer>
		<layer id="84" name="Constant_61748" type="Const" version="opset1">
			<data element_type="f32" shape="1, 192, 1, 1" offset="186044" size="768"/>
			<output>
				<port id="0" precision="FP32">
					<dim>1</dim>
					<dim>192</dim>
					<dim>1</dim>
					<dim>1</dim>
				</port>
			</output>
		</layer>
		<layer id="85" name="416" type="Add" version="opset1">
			<data auto_broadcast="numpy"/>
			<rt_info>
				<attribute name="fused_names" version="0" value="416, backbone.features.stage3.unit3.conv1.bn.bias, backbone.features.stage3.unit3.conv1.bn.running_mean, backbone.features.stage3.unit3.conv1.bn.running_var, backbone.features.stage3.unit3.conv1.bn.weight"/>
			</rt_info>
			<input>
				<port id="0" precision="FP32">
					<dim>1</dim>
					<dim>192</dim>
					<dim>60</dim>
					<dim>108</dim>
				</port>
				<port id="1" precision="FP32">
					<dim>1</dim>
					<dim>192</dim>
					<dim>1</dim>
					<dim>1</dim>
				</port>
			</input>
			<output>
				<port id="2" precision="FP32" names="416">
					<dim>1</dim>
					<dim>192</dim>
					<dim>60</dim>
					<dim>108</dim>
				</port>
			</output>
		</layer>
		<layer id="86" name="417" type="Clamp" version="opset1">
			<data min="0" max="6"/>
			<rt_info>
				<attribute name="fused_names" version="0" value="417"/>
			</rt_info>
			<input>
				<port id="0" precision="FP32">
					<dim>1</dim>
					<dim>192</dim>
					<dim>60</dim>
					<dim>108</dim>
				</port>
			</input>
			<output>
				<port id="1" precision="FP32" names="417">
					<dim>1</dim>
					<dim>192</dim>
					<dim>60</dim>
					<dim>108</dim>
				</port>
			</output>
		</layer>
		<layer id="87" name="Multiply_62170" type="Const" version="opset1">
			<data element_type="f32" shape="192, 1, 1, 3, 3" offset="186812" size="6912"/>
			<output>
				<port id="0" precision="FP32">
					<dim>192</dim>
					<dim>1</dim>
					<dim>1</dim>
					<dim>3</dim>
					<dim>3</dim>
				</port>
			</output>
		</layer>
		<layer id="88" name="Multiply_61750" type="GroupConvolution" version="opset1">
			<data strides="1, 1" pads_begin="1, 1" pads_end="1, 1" dilations="1, 1" auto_pad="explicit"/>
			<rt_info>
				<attribute name="fused_names" version="0" value="419, backbone.features.stage3.unit3.conv2.bn.bias, backbone.features.stage3.unit3.conv2.bn.running_mean, backbone.features.stage3.unit3.conv2.bn.running_var, backbone.features.stage3.unit3.conv2.bn.weight"/>
			</rt_info>
			<input>
				<port id="0" precision="FP32">
					<dim>1</dim>
					<dim>192</dim>
					<dim>60</dim>
					<dim>108</dim>
				</port>
				<port id="1" precision="FP32">
					<dim>192</dim>
					<dim>1</dim>
					<dim>1</dim>
					<dim>3</dim>
					<dim>3</dim>
				</port>
			</input>
			<output>
				<port id="2" precision="FP32" names="418">
					<dim>1</dim>
					<dim>192</dim>
					<dim>60</dim>
					<dim>108</dim>
				</port>
			</output>
		</layer>
		<layer id="89" name="Constant_61755" type="Const" version="opset1">
			<data element_type="f32" shape="1, 192, 1, 1" offset="193724" size="768"/>
			<output>
				<port id="0" precision="FP32">
					<dim>1</dim>
					<dim>192</dim>
					<dim>1</dim>
					<dim>1</dim>
				</port>
			</output>
		</layer>
		<layer id="90" name="419" type="Add" version="opset1">
			<data auto_broadcast="numpy"/>
			<rt_info>
				<attribute name="fused_names" version="0" value="419, backbone.features.stage3.unit3.conv2.bn.bias, backbone.features.stage3.unit3.conv2.bn.running_mean, backbone.features.stage3.unit3.conv2.bn.running_var, backbone.features.stage3.unit3.conv2.bn.weight"/>
			</rt_info>
			<input>
				<port id="0" precision="FP32">
					<dim>1</dim>
					<dim>192</dim>
					<dim>60</dim>
					<dim>108</dim>
				</port>
				<port id="1" precision="FP32">
					<dim>1</dim>
					<dim>192</dim>
					<dim>1</dim>
					<dim>1</dim>
				</port>
			</input>
			<output>
				<port id="2" precision="FP32" names="419">
					<dim>1</dim>
					<dim>192</dim>
					<dim>60</dim>
					<dim>108</dim>
				</port>
			</output>
		</layer>
		<layer id="91" name="420" type="Clamp" version="opset1">
			<data min="0" max="6"/>
			<rt_info>
				<attribute name="fused_names" version="0" value="420"/>
			</rt_info>
			<input>
				<port id="0" precision="FP32">
					<dim>1</dim>
					<dim>192</dim>
					<dim>60</dim>
					<dim>108</dim>
				</port>
			</input>
			<output>
				<port id="1" precision="FP32" names="420">
					<dim>1</dim>
					<dim>192</dim>
					<dim>60</dim>
					<dim>108</dim>
				</port>
			</output>
		</layer>
		<layer id="92" name="Multiply_62178" type="Const" version="opset1">
			<data element_type="f32" shape="32, 192, 1, 1" offset="194492" size="24576"/>
			<output>
				<port id="0" precision="FP32">
					<dim>32</dim>
					<dim>192</dim>
					<dim>1</dim>
					<dim>1</dim>
				</port>
			</output>
		</layer>
		<layer id="93" name="Multiply_61757" type="Convolution" version="opset1">
			<data strides="1, 1" dilations="1, 1" pads_begin="0, 0" pads_end="0, 0" auto_pad="explicit"/>
			<rt_info>
				<attribute name="fused_names" version="0" value="421, 422, backbone.features.stage3.unit3.conv3.bn.bias, backbone.features.stage3.unit3.conv3.bn.running_mean, backbone.features.stage3.unit3.conv3.bn.running_var, backbone.features.stage3.unit3.conv3.bn.weight"/>
			</rt_info>
			<input>
				<port id="0" precision="FP32">
					<dim>1</dim>
					<dim>192</dim>
					<dim>60</dim>
					<dim>108</dim>
				</port>
				<port id="1" precision="FP32">
					<dim>32</dim>
					<dim>192</dim>
					<dim>1</dim>
					<dim>1</dim>
				</port>
			</input>
			<output>
				<port id="2" precision="FP32">
					<dim>1</dim>
					<dim>32</dim>
					<dim>60</dim>
					<dim>108</dim>
				</port>
			</output>
		</layer>
		<layer id="94" name="Constant_61762" type="Const" version="opset1">
			<data element_type="f32" shape="1, 32, 1, 1" offset="219068" size="128"/>
			<output>
				<port id="0" precision="FP32">
					<dim>1</dim>
					<dim>32</dim>
					<dim>1</dim>
					<dim>1</dim>
				</port>
			</output>
		</layer>
		<layer id="95" name="422" type="Add" version="opset1">
			<data auto_broadcast="numpy"/>
			<rt_info>
				<attribute name="fused_names" version="0" value="422, backbone.features.stage3.unit3.conv3.bn.bias, backbone.features.stage3.unit3.conv3.bn.running_mean, backbone.features.stage3.unit3.conv3.bn.running_var, backbone.features.stage3.unit3.conv3.bn.weight"/>
			</rt_info>
			<input>
				<port id="0" precision="FP32">
					<dim>1</dim>
					<dim>32</dim>
					<dim>60</dim>
					<dim>108</dim>
				</port>
				<port id="1" precision="FP32">
					<dim>1</dim>
					<dim>32</dim>
					<dim>1</dim>
					<dim>1</dim>
				</port>
			</input>
			<output>
				<port id="2" precision="FP32" names="422">
					<dim>1</dim>
					<dim>32</dim>
					<dim>60</dim>
					<dim>108</dim>
				</port>
			</output>
		</layer>
		<layer id="96" name="423" type="Add" version="opset1">
			<data auto_broadcast="numpy"/>
			<rt_info>
				<attribute name="fused_names" version="0" value="423"/>
			</rt_info>
			<input>
				<port id="0" precision="FP32">
					<dim>1</dim>
					<dim>32</dim>
					<dim>60</dim>
					<dim>108</dim>
				</port>
				<port id="1" precision="FP32">
					<dim>1</dim>
					<dim>32</dim>
					<dim>60</dim>
					<dim>108</dim>
				</port>
			</input>
			<output>
				<port id="2" precision="FP32" names="423">
					<dim>1</dim>
					<dim>32</dim>
					<dim>60</dim>
					<dim>108</dim>
				</port>
			</output>
		</layer>
		<layer id="97" name="neck.lateral_convs.0.conv.weight" type="Const" version="opset1">
			<data element_type="f32" shape="32, 32, 1, 1" offset="219196" size="4096"/>
			<rt_info>
				<attribute name="fused_names" version="0" value="neck.lateral_convs.0.conv.weight"/>
			</rt_info>
			<output>
				<port id="0" precision="FP32" names="neck.lateral_convs.0.conv.weight">
					<dim>32</dim>
					<dim>32</dim>
					<dim>1</dim>
					<dim>1</dim>
				</port>
			</output>
		</layer>
		<layer id="98" name="Convolution_2177" type="Convolution" version="opset1">
			<data strides="1, 1" dilations="1, 1" pads_begin="0, 0" pads_end="0, 0" auto_pad="explicit"/>
			<rt_info>
				<attribute name="fused_names" version="0" value="Convolution_2177"/>
			</rt_info>
			<input>
				<port id="0" precision="FP32">
					<dim>1</dim>
					<dim>32</dim>
					<dim>60</dim>
					<dim>108</dim>
				</port>
				<port id="1" precision="FP32">
					<dim>32</dim>
					<dim>32</dim>
					<dim>1</dim>
					<dim>1</dim>
				</port>
			</input>
			<output>
				<port id="2" precision="FP32">
					<dim>1</dim>
					<dim>32</dim>
					<dim>60</dim>
					<dim>108</dim>
				</port>
			</output>
		</layer>
		<layer id="99" name="Reshape_2197" type="Const" version="opset1">
			<data element_type="f32" shape="1, 32, 1, 1" offset="223292" size="128"/>
			<output>
				<port id="0" precision="FP32">
					<dim>1</dim>
					<dim>32</dim>
					<dim>1</dim>
					<dim>1</dim>
				</port>
			</output>
		</layer>
		<layer id="100" name="519" type="Add" version="opset1">
			<data auto_broadcast="numpy"/>
			<rt_info>
				<attribute name="fused_names" version="0" value="519, Concat_2196, Reshape_2197"/>
			</rt_info>
			<input>
				<port id="0" precision="FP32">
					<dim>1</dim>
					<dim>32</dim>
					<dim>60</dim>
					<dim>108</dim>
				</port>
				<port id="1" precision="FP32">
					<dim>1</dim>
					<dim>32</dim>
					<dim>1</dim>
					<dim>1</dim>
				</port>
			</input>
			<output>
				<port id="2" precision="FP32" names="519">
					<dim>1</dim>
					<dim>32</dim>
					<dim>60</dim>
					<dim>108</dim>
				</port>
			</output>
		</layer>
		<layer id="101" name="Multiply_62187" type="Const" version="opset1">
			<data element_type="f32" shape="192, 32, 1, 1" offset="223420" size="24576"/>
			<output>
				<port id="0" precision="FP32">
					<dim>192</dim>
					<dim>32</dim>
					<dim>1</dim>
					<dim>1</dim>
				</port>
			</output>
		</layer>
		<layer id="102" name="Multiply_61764" type="Convolution" version="opset1">
			<data strides="1, 1" dilations="1, 1" pads_begin="0, 0" pads_end="0, 0" auto_pad="explicit"/>
			<rt_info>
				<attribute name="fused_names" version="0" value="424, 425, backbone.features.stage4.unit1.conv1.bn.bias, backbone.features.stage4.unit1.conv1.bn.running_mean, backbone.features.stage4.unit1.conv1.bn.running_var, backbone.features.stage4.unit1.conv1.bn.weight"/>
			</rt_info>
			<input>
				<port id="0" precision="FP32">
					<dim>1</dim>
					<dim>32</dim>
					<dim>60</dim>
					<dim>108</dim>
				</port>
				<port id="1" precision="FP32">
					<dim>192</dim>
					<dim>32</dim>
					<dim>1</dim>
					<dim>1</dim>
				</port>
			</input>
			<output>
				<port id="2" precision="FP32">
					<dim>1</dim>
					<dim>192</dim>
					<dim>60</dim>
					<dim>108</dim>
				</port>
			</output>
		</layer>
		<layer id="103" name="Constant_61769" type="Const" version="opset1">
			<data element_type="f32" shape="1, 192, 1, 1" offset="247996" size="768"/>
			<output>
				<port id="0" precision="FP32">
					<dim>1</dim>
					<dim>192</dim>
					<dim>1</dim>
					<dim>1</dim>
				</port>
			</output>
		</layer>
		<layer id="104" name="425" type="Add" version="opset1">
			<data auto_broadcast="numpy"/>
			<rt_info>
				<attribute name="fused_names" version="0" value="425, backbone.features.stage4.unit1.conv1.bn.bias, backbone.features.stage4.unit1.conv1.bn.running_mean, backbone.features.stage4.unit1.conv1.bn.running_var, backbone.features.stage4.unit1.conv1.bn.weight"/>
			</rt_info>
			<input>
				<port id="0" precision="FP32">
					<dim>1</dim>
					<dim>192</dim>
					<dim>60</dim>
					<dim>108</dim>
				</port>
				<port id="1" precision="FP32">
					<dim>1</dim>
					<dim>192</dim>
					<dim>1</dim>
					<dim>1</dim>
				</port>
			</input>
			<output>
				<port id="2" precision="FP32" names="425">
					<dim>1</dim>
					<dim>192</dim>
					<dim>60</dim>
					<dim>108</dim>
				</port>
			</output>
		</layer>
		<layer id="105" name="426" type="Clamp" version="opset1">
			<data min="0" max="6"/>
			<rt_info>
				<attribute name="fused_names" version="0" value="426"/>
			</rt_info>
			<input>
				<port id="0" precision="FP32">
					<dim>1</dim>
					<dim>192</dim>
					<dim>60</dim>
					<dim>108</dim>
				</port>
			</input>
			<output>
				<port id="1" precision="FP32" names="426">
					<dim>1</dim>
					<dim>192</dim>
					<dim>60</dim>
					<dim>108</dim>
				</port>
			</output>
		</layer>
		<layer id="106" name="Multiply_62196" type="Const" version="opset1">
			<data element_type="f32" shape="192, 1, 1, 3, 3" offset="248764" size="6912"/>
			<output>
				<port id="0" precision="FP32">
					<dim>192</dim>
					<dim>1</dim>
					<dim>1</dim>
					<dim>3</dim>
					<dim>3</dim>
				</port>
			</output>
		</layer>
		<layer id="107" name="Multiply_61771" type="GroupConvolution" version="opset1">
			<data strides="2, 2" pads_begin="1, 1" pads_end="1, 1" dilations="1, 1" auto_pad="explicit"/>
			<rt_info>
				<attribute name="fused_names" version="0" value="428, backbone.features.stage4.unit1.conv2.bn.bias, backbone.features.stage4.unit1.conv2.bn.running_mean, backbone.features.stage4.unit1.conv2.bn.running_var, backbone.features.stage4.unit1.conv2.bn.weight"/>
			</rt_info>
			<input>
				<port id="0" precision="FP32">
					<dim>1</dim>
					<dim>192</dim>
					<dim>60</dim>
					<dim>108</dim>
				</port>
				<port id="1" precision="FP32">
					<dim>192</dim>
					<dim>1</dim>
					<dim>1</dim>
					<dim>3</dim>
					<dim>3</dim>
				</port>
			</input>
			<output>
				<port id="2" precision="FP32" names="427">
					<dim>1</dim>
					<dim>192</dim>
					<dim>30</dim>
					<dim>54</dim>
				</port>
			</output>
		</layer>
		<layer id="108" name="Constant_61776" type="Const" version="opset1">
			<data element_type="f32" shape="1, 192, 1, 1" offset="255676" size="768"/>
			<output>
				<port id="0" precision="FP32">
					<dim>1</dim>
					<dim>192</dim>
					<dim>1</dim>
					<dim>1</dim>
				</port>
			</output>
		</layer>
		<layer id="109" name="428" type="Add" version="opset1">
			<data auto_broadcast="numpy"/>
			<rt_info>
				<attribute name="fused_names" version="0" value="428, backbone.features.stage4.unit1.conv2.bn.bias, backbone.features.stage4.unit1.conv2.bn.running_mean, backbone.features.stage4.unit1.conv2.bn.running_var, backbone.features.stage4.unit1.conv2.bn.weight"/>
			</rt_info>
			<input>
				<port id="0" precision="FP32">
					<dim>1</dim>
					<dim>192</dim>
					<dim>30</dim>
					<dim>54</dim>
				</port>
				<port id="1" precision="FP32">
					<dim>1</dim>
					<dim>192</dim>
					<dim>1</dim>
					<dim>1</dim>
				</port>
			</input>
			<output>
				<port id="2" precision="FP32" names="428">
					<dim>1</dim>
					<dim>192</dim>
					<dim>30</dim>
					<dim>54</dim>
				</port>
			</output>
		</layer>
		<layer id="110" name="429" type="Clamp" version="opset1">
			<data min="0" max="6"/>
			<rt_info>
				<attribute name="fused_names" version="0" value="429"/>
			</rt_info>
			<input>
				<port id="0" precision="FP32">
					<dim>1</dim>
					<dim>192</dim>
					<dim>30</dim>
					<dim>54</dim>
				</port>
			</input>
			<output>
				<port id="1" precision="FP32" names="429">
					<dim>1</dim>
					<dim>192</dim>
					<dim>30</dim>
					<dim>54</dim>
				</port>
			</output>
		</layer>
		<layer id="111" name="Multiply_62204" type="Const" version="opset1">
			<data element_type="f32" shape="64, 192, 1, 1" offset="256444" size="49152"/>
			<output>
				<port id="0" precision="FP32">
					<dim>64</dim>
					<dim>192</dim>
					<dim>1</dim>
					<dim>1</dim>
				</port>
			</output>
		</layer>
		<layer id="112" name="Multiply_61778" type="Convolution" version="opset1">
			<data strides="1, 1" dilations="1, 1" pads_begin="0, 0" pads_end="0, 0" auto_pad="explicit"/>
			<rt_info>
				<attribute name="fused_names" version="0" value="430, 431, backbone.features.stage4.unit1.conv3.bn.bias, backbone.features.stage4.unit1.conv3.bn.running_mean, backbone.features.stage4.unit1.conv3.bn.running_var, backbone.features.stage4.unit1.conv3.bn.weight"/>
			</rt_info>
			<input>
				<port id="0" precision="FP32">
					<dim>1</dim>
					<dim>192</dim>
					<dim>30</dim>
					<dim>54</dim>
				</port>
				<port id="1" precision="FP32">
					<dim>64</dim>
					<dim>192</dim>
					<dim>1</dim>
					<dim>1</dim>
				</port>
			</input>
			<output>
				<port id="2" precision="FP32">
					<dim>1</dim>
					<dim>64</dim>
					<dim>30</dim>
					<dim>54</dim>
				</port>
			</output>
		</layer>
		<layer id="113" name="Constant_61783" type="Const" version="opset1">
			<data element_type="f32" shape="1, 64, 1, 1" offset="305596" size="256"/>
			<output>
				<port id="0" precision="FP32">
					<dim>1</dim>
					<dim>64</dim>
					<dim>1</dim>
					<dim>1</dim>
				</port>
			</output>
		</layer>
		<layer id="114" name="431" type="Add" version="opset1">
			<data auto_broadcast="numpy"/>
			<rt_info>
				<attribute name="fused_names" version="0" value="431, backbone.features.stage4.unit1.conv3.bn.bias, backbone.features.stage4.unit1.conv3.bn.running_mean, backbone.features.stage4.unit1.conv3.bn.running_var, backbone.features.stage4.unit1.conv3.bn.weight"/>
			</rt_info>
			<input>
				<port id="0" precision="FP32">
					<dim>1</dim>
					<dim>64</dim>
					<dim>30</dim>
					<dim>54</dim>
				</port>
				<port id="1" precision="FP32">
					<dim>1</dim>
					<dim>64</dim>
					<dim>1</dim>
					<dim>1</dim>
				</port>
			</input>
			<output>
				<port id="2" precision="FP32" names="431">
					<dim>1</dim>
					<dim>64</dim>
					<dim>30</dim>
					<dim>54</dim>
				</port>
			</output>
		</layer>
		<layer id="115" name="Multiply_62213" type="Const" version="opset1">
			<data element_type="f32" shape="384, 64, 1, 1" offset="305852" size="98304"/>
			<output>
				<port id="0" precision="FP32">
					<dim>384</dim>
					<dim>64</dim>
					<dim>1</dim>
					<dim>1</dim>
				</port>
			</output>
		</layer>
		<layer id="116" name="Multiply_61785" type="Convolution" version="opset1">
			<data strides="1, 1" dilations="1, 1" pads_begin="0, 0" pads_end="0, 0" auto_pad="explicit"/>
			<rt_info>
				<attribute name="fused_names" version="0" value="432, 433, backbone.features.stage4.unit2.conv1.bn.bias, backbone.features.stage4.unit2.conv1.bn.running_mean, backbone.features.stage4.unit2.conv1.bn.running_var, backbone.features.stage4.unit2.conv1.bn.weight"/>
			</rt_info>
			<input>
				<port id="0" precision="FP32">
					<dim>1</dim>
					<dim>64</dim>
					<dim>30</dim>
					<dim>54</dim>
				</port>
				<port id="1" precision="FP32">
					<dim>384</dim>
					<dim>64</dim>
					<dim>1</dim>
					<dim>1</dim>
				</port>
			</input>
			<output>
				<port id="2" precision="FP32">
					<dim>1</dim>
					<dim>384</dim>
					<dim>30</dim>
					<dim>54</dim>
				</port>
			</output>
		</layer>
		<layer id="117" name="Constant_61790" type="Const" version="opset1">
			<data element_type="f32" shape="1, 384, 1, 1" offset="404156" size="1536"/>
			<output>
				<port id="0" precision="FP32">
					<dim>1</dim>
					<dim>384</dim>
					<dim>1</dim>
					<dim>1</dim>
				</port>
			</output>
		</layer>
		<layer id="118" name="433" type="Add" version="opset1">
			<data auto_broadcast="numpy"/>
			<rt_info>
				<attribute name="fused_names" version="0" value="433, backbone.features.stage4.unit2.conv1.bn.bias, backbone.features.stage4.unit2.conv1.bn.running_mean, backbone.features.stage4.unit2.conv1.bn.running_var, backbone.features.stage4.unit2.conv1.bn.weight"/>
			</rt_info>
			<input>
				<port id="0" precision="FP32">
					<dim>1</dim>
					<dim>384</dim>
					<dim>30</dim>
					<dim>54</dim>
				</port>
				<port id="1" precision="FP32">
					<dim>1</dim>
					<dim>384</dim>
					<dim>1</dim>
					<dim>1</dim>
				</port>
			</input>
			<output>
				<port id="2" precision="FP32" names="433">
					<dim>1</dim>
					<dim>384</dim>
					<dim>30</dim>
					<dim>54</dim>
				</port>
			</output>
		</layer>
		<layer id="119" name="434" type="Clamp" version="opset1">
			<data min="0" max="6"/>
			<rt_info>
				<attribute name="fused_names" version="0" value="434"/>
			</rt_info>
			<input>
				<port id="0" precision="FP32">
					<dim>1</dim>
					<dim>384</dim>
					<dim>30</dim>
					<dim>54</dim>
				</port>
			</input>
			<output>
				<port id="1" precision="FP32" names="434">
					<dim>1</dim>
					<dim>384</dim>
					<dim>30</dim>
					<dim>54</dim>
				</port>
			</output>
		</layer>
		<layer id="120" name="Multiply_62222" type="Const" version="opset1">
			<data element_type="f32" shape="384, 1, 1, 3, 3" offset="405692" size="13824"/>
			<output>
				<port id="0" precision="FP32">
					<dim>384</dim>
					<dim>1</dim>
					<dim>1</dim>
					<dim>3</dim>
					<dim>3</dim>
				</port>
			</output>
		</layer>
		<layer id="121" name="Multiply_61792" type="GroupConvolution" version="opset1">
			<data strides="1, 1" pads_begin="1, 1" pads_end="1, 1" dilations="1, 1" auto_pad="explicit"/>
			<rt_info>
				<attribute name="fused_names" version="0" value="436, backbone.features.stage4.unit2.conv2.bn.bias, backbone.features.stage4.unit2.conv2.bn.running_mean, backbone.features.stage4.unit2.conv2.bn.running_var, backbone.features.stage4.unit2.conv2.bn.weight"/>
			</rt_info>
			<input>
				<port id="0" precision="FP32">
					<dim>1</dim>
					<dim>384</dim>
					<dim>30</dim>
					<dim>54</dim>
				</port>
				<port id="1" precision="FP32">
					<dim>384</dim>
					<dim>1</dim>
					<dim>1</dim>
					<dim>3</dim>
					<dim>3</dim>
				</port>
			</input>
			<output>
				<port id="2" precision="FP32" names="435">
					<dim>1</dim>
					<dim>384</dim>
					<dim>30</dim>
					<dim>54</dim>
				</port>
			</output>
		</layer>
		<layer id="122" name="Constant_61797" type="Const" version="opset1">
			<data element_type="f32" shape="1, 384, 1, 1" offset="419516" size="1536"/>
			<output>
				<port id="0" precision="FP32">
					<dim>1</dim>
					<dim>384</dim>
					<dim>1</dim>
					<dim>1</dim>
				</port>
			</output>
		</layer>
		<layer id="123" name="436" type="Add" version="opset1">
			<data auto_broadcast="numpy"/>
			<rt_info>
				<attribute name="fused_names" version="0" value="436, backbone.features.stage4.unit2.conv2.bn.bias, backbone.features.stage4.unit2.conv2.bn.running_mean, backbone.features.stage4.unit2.conv2.bn.running_var, backbone.features.stage4.unit2.conv2.bn.weight"/>
			</rt_info>
			<input>
				<port id="0" precision="FP32">
					<dim>1</dim>
					<dim>384</dim>
					<dim>30</dim>
					<dim>54</dim>
				</port>
				<port id="1" precision="FP32">
					<dim>1</dim>
					<dim>384</dim>
					<dim>1</dim>
					<dim>1</dim>
				</port>
			</input>
			<output>
				<port id="2" precision="FP32" names="436">
					<dim>1</dim>
					<dim>384</dim>
					<dim>30</dim>
					<dim>54</dim>
				</port>
			</output>
		</layer>
		<layer id="124" name="437" type="Clamp" version="opset1">
			<data min="0" max="6"/>
			<rt_info>
				<attribute name="fused_names" version="0" value="437"/>
			</rt_info>
			<input>
				<port id="0" precision="FP32">
					<dim>1</dim>
					<dim>384</dim>
					<dim>30</dim>
					<dim>54</dim>
				</port>
			</input>
			<output>
				<port id="1" precision="FP32" names="437">
					<dim>1</dim>
					<dim>384</dim>
					<dim>30</dim>
					<dim>54</dim>
				</port>
			</output>
		</layer>
		<layer id="125" name="Multiply_62230" type="Const" version="opset1">
			<data element_type="f32" shape="64, 384, 1, 1" offset="421052" size="98304"/>
			<output>
				<port id="0" precision="FP32">
					<dim>64</dim>
					<dim>384</dim>
					<dim>1</dim>
					<dim>1</dim>
				</port>
			</output>
		</layer>
		<layer id="126" name="Multiply_61799" type="Convolution" version="opset1">
			<data strides="1, 1" dilations="1, 1" pads_begin="0, 0" pads_end="0, 0" auto_pad="explicit"/>
			<rt_info>
				<attribute name="fused_names" version="0" value="438, 439, backbone.features.stage4.unit2.conv3.bn.bias, backbone.features.stage4.unit2.conv3.bn.running_mean, backbone.features.stage4.unit2.conv3.bn.running_var, backbone.features.stage4.unit2.conv3.bn.weight"/>
			</rt_info>
			<input>
				<port id="0" precision="FP32">
					<dim>1</dim>
					<dim>384</dim>
					<dim>30</dim>
					<dim>54</dim>
				</port>
				<port id="1" precision="FP32">
					<dim>64</dim>
					<dim>384</dim>
					<dim>1</dim>
					<dim>1</dim>
				</port>
			</input>
			<output>
				<port id="2" precision="FP32">
					<dim>1</dim>
					<dim>64</dim>
					<dim>30</dim>
					<dim>54</dim>
				</port>
			</output>
		</layer>
		<layer id="127" name="Constant_61804" type="Const" version="opset1">
			<data element_type="f32" shape="1, 64, 1, 1" offset="519356" size="256"/>
			<output>
				<port id="0" precision="FP32">
					<dim>1</dim>
					<dim>64</dim>
					<dim>1</dim>
					<dim>1</dim>
				</port>
			</output>
		</layer>
		<layer id="128" name="439" type="Add" version="opset1">
			<data auto_broadcast="numpy"/>
			<rt_info>
				<attribute name="fused_names" version="0" value="439, backbone.features.stage4.unit2.conv3.bn.bias, backbone.features.stage4.unit2.conv3.bn.running_mean, backbone.features.stage4.unit2.conv3.bn.running_var, backbone.features.stage4.unit2.conv3.bn.weight"/>
			</rt_info>
			<input>
				<port id="0" precision="FP32">
					<dim>1</dim>
					<dim>64</dim>
					<dim>30</dim>
					<dim>54</dim>
				</port>
				<port id="1" precision="FP32">
					<dim>1</dim>
					<dim>64</dim>
					<dim>1</dim>
					<dim>1</dim>
				</port>
			</input>
			<output>
				<port id="2" precision="FP32" names="439">
					<dim>1</dim>
					<dim>64</dim>
					<dim>30</dim>
					<dim>54</dim>
				</port>
			</output>
		</layer>
		<layer id="129" name="440" type="Add" version="opset1">
			<data auto_broadcast="numpy"/>
			<rt_info>
				<attribute name="fused_names" version="0" value="440"/>
			</rt_info>
			<input>
				<port id="0" precision="FP32">
					<dim>1</dim>
					<dim>64</dim>
					<dim>30</dim>
					<dim>54</dim>
				</port>
				<port id="1" precision="FP32">
					<dim>1</dim>
					<dim>64</dim>
					<dim>30</dim>
					<dim>54</dim>
				</port>
			</input>
			<output>
				<port id="2" precision="FP32" names="440">
					<dim>1</dim>
					<dim>64</dim>
					<dim>30</dim>
					<dim>54</dim>
				</port>
			</output>
		</layer>
		<layer id="130" name="Multiply_62239" type="Const" version="opset1">
			<data element_type="f32" shape="384, 64, 1, 1" offset="519612" size="98304"/>
			<output>
				<port id="0" precision="FP32">
					<dim>384</dim>
					<dim>64</dim>
					<dim>1</dim>
					<dim>1</dim>
				</port>
			</output>
		</layer>
		<layer id="131" name="Multiply_61806" type="Convolution" version="opset1">
			<data strides="1, 1" dilations="1, 1" pads_begin="0, 0" pads_end="0, 0" auto_pad="explicit"/>
			<rt_info>
				<attribute name="fused_names" version="0" value="441, 442, backbone.features.stage4.unit3.conv1.bn.bias, backbone.features.stage4.unit3.conv1.bn.running_mean, backbone.features.stage4.unit3.conv1.bn.running_var, backbone.features.stage4.unit3.conv1.bn.weight"/>
			</rt_info>
			<input>
				<port id="0" precision="FP32">
					<dim>1</dim>
					<dim>64</dim>
					<dim>30</dim>
					<dim>54</dim>
				</port>
				<port id="1" precision="FP32">
					<dim>384</dim>
					<dim>64</dim>
					<dim>1</dim>
					<dim>1</dim>
				</port>
			</input>
			<output>
				<port id="2" precision="FP32">
					<dim>1</dim>
					<dim>384</dim>
					<dim>30</dim>
					<dim>54</dim>
				</port>
			</output>
		</layer>
		<layer id="132" name="Constant_61811" type="Const" version="opset1">
			<data element_type="f32" shape="1, 384, 1, 1" offset="617916" size="1536"/>
			<output>
				<port id="0" precision="FP32">
					<dim>1</dim>
					<dim>384</dim>
					<dim>1</dim>
					<dim>1</dim>
				</port>
			</output>
		</layer>
		<layer id="133" name="442" type="Add" version="opset1">
			<data auto_broadcast="numpy"/>
			<rt_info>
				<attribute name="fused_names" version="0" value="442, backbone.features.stage4.unit3.conv1.bn.bias, backbone.features.stage4.unit3.conv1.bn.running_mean, backbone.features.stage4.unit3.conv1.bn.running_var, backbone.features.stage4.unit3.conv1.bn.weight"/>
			</rt_info>
			<input>
				<port id="0" precision="FP32">
					<dim>1</dim>
					<dim>384</dim>
					<dim>30</dim>
					<dim>54</dim>
				</port>
				<port id="1" precision="FP32">
					<dim>1</dim>
					<dim>384</dim>
					<dim>1</dim>
					<dim>1</dim>
				</port>
			</input>
			<output>
				<port id="2" precision="FP32" names="442">
					<dim>1</dim>
					<dim>384</dim>
					<dim>30</dim>
					<dim>54</dim>
				</port>
			</output>
		</layer>
		<layer id="134" name="443" type="Clamp" version="opset1">
			<data min="0" max="6"/>
			<rt_info>
				<attribute name="fused_names" version="0" value="443"/>
			</rt_info>
			<input>
				<port id="0" precision="FP32">
					<dim>1</dim>
					<dim>384</dim>
					<dim>30</dim>
					<dim>54</dim>
				</port>
			</input>
			<output>
				<port id="1" precision="FP32" names="443">
					<dim>1</dim>
					<dim>384</dim>
					<dim>30</dim>
					<dim>54</dim>
				</port>
			</output>
		</layer>
		<layer id="135" name="Multiply_62248" type="Const" version="opset1">
			<data element_type="f32" shape="384, 1, 1, 3, 3" offset="619452" size="13824"/>
			<output>
				<port id="0" precision="FP32">
					<dim>384</dim>
					<dim>1</dim>
					<dim>1</dim>
					<dim>3</dim>
					<dim>3</dim>
				</port>
			</output>
		</layer>
		<layer id="136" name="Multiply_61813" type="GroupConvolution" version="opset1">
			<data strides="1, 1" pads_begin="1, 1" pads_end="1, 1" dilations="1, 1" auto_pad="explicit"/>
			<rt_info>
				<attribute name="fused_names" version="0" value="445, backbone.features.stage4.unit3.conv2.bn.bias, backbone.features.stage4.unit3.conv2.bn.running_mean, backbone.features.stage4.unit3.conv2.bn.running_var, backbone.features.stage4.unit3.conv2.bn.weight"/>
			</rt_info>
			<input>
				<port id="0" precision="FP32">
					<dim>1</dim>
					<dim>384</dim>
					<dim>30</dim>
					<dim>54</dim>
				</port>
				<port id="1" precision="FP32">
					<dim>384</dim>
					<dim>1</dim>
					<dim>1</dim>
					<dim>3</dim>
					<dim>3</dim>
				</port>
			</input>
			<output>
				<port id="2" precision="FP32" names="444">
					<dim>1</dim>
					<dim>384</dim>
					<dim>30</dim>
					<dim>54</dim>
				</port>
			</output>
		</layer>
		<layer id="137" name="Constant_61818" type="Const" version="opset1">
			<data element_type="f32" shape="1, 384, 1, 1" offset="633276" size="1536"/>
			<output>
				<port id="0" precision="FP32">
					<dim>1</dim>
					<dim>384</dim>
					<dim>1</dim>
					<dim>1</dim>
				</port>
			</output>
		</layer>
		<layer id="138" name="445" type="Add" version="opset1">
			<data auto_broadcast="numpy"/>
			<rt_info>
				<attribute name="fused_names" version="0" value="445, backbone.features.stage4.unit3.conv2.bn.bias, backbone.features.stage4.unit3.conv2.bn.running_mean, backbone.features.stage4.unit3.conv2.bn.running_var, backbone.features.stage4.unit3.conv2.bn.weight"/>
			</rt_info>
			<input>
				<port id="0" precision="FP32">
					<dim>1</dim>
					<dim>384</dim>
					<dim>30</dim>
					<dim>54</dim>
				</port>
				<port id="1" precision="FP32">
					<dim>1</dim>
					<dim>384</dim>
					<dim>1</dim>
					<dim>1</dim>
				</port>
			</input>
			<output>
				<port id="2" precision="FP32" names="445">
					<dim>1</dim>
					<dim>384</dim>
					<dim>30</dim>
					<dim>54</dim>
				</port>
			</output>
		</layer>
		<layer id="139" name="446" type="Clamp" version="opset1">
			<data min="0" max="6"/>
			<rt_info>
				<attribute name="fused_names" version="0" value="446"/>
			</rt_info>
			<input>
				<port id="0" precision="FP32">
					<dim>1</dim>
					<dim>384</dim>
					<dim>30</dim>
					<dim>54</dim>
				</port>
			</input>
			<output>
				<port id="1" precision="FP32" names="446">
					<dim>1</dim>
					<dim>384</dim>
					<dim>30</dim>
					<dim>54</dim>
				</port>
			</output>
		</layer>
		<layer id="140" name="Multiply_62256" type="Const" version="opset1">
			<data element_type="f32" shape="64, 384, 1, 1" offset="634812" size="98304"/>
			<output>
				<port id="0" precision="FP32">
					<dim>64</dim>
					<dim>384</dim>
					<dim>1</dim>
					<dim>1</dim>
				</port>
			</output>
		</layer>
		<layer id="141" name="Multiply_61820" type="Convolution" version="opset1">
			<data strides="1, 1" dilations="1, 1" pads_begin="0, 0" pads_end="0, 0" auto_pad="explicit"/>
			<rt_info>
				<attribute name="fused_names" version="0" value="447, 448, backbone.features.stage4.unit3.conv3.bn.bias, backbone.features.stage4.unit3.conv3.bn.running_mean, backbone.features.stage4.unit3.conv3.bn.running_var, backbone.features.stage4.unit3.conv3.bn.weight"/>
			</rt_info>
			<input>
				<port id="0" precision="FP32">
					<dim>1</dim>
					<dim>384</dim>
					<dim>30</dim>
					<dim>54</dim>
				</port>
				<port id="1" precision="FP32">
					<dim>64</dim>
					<dim>384</dim>
					<dim>1</dim>
					<dim>1</dim>
				</port>
			</input>
			<output>
				<port id="2" precision="FP32">
					<dim>1</dim>
					<dim>64</dim>
					<dim>30</dim>
					<dim>54</dim>
				</port>
			</output>
		</layer>
		<layer id="142" name="Constant_61825" type="Const" version="opset1">
			<data element_type="f32" shape="1, 64, 1, 1" offset="733116" size="256"/>
			<output>
				<port id="0" precision="FP32">
					<dim>1</dim>
					<dim>64</dim>
					<dim>1</dim>
					<dim>1</dim>
				</port>
			</output>
		</layer>
		<layer id="143" name="448" type="Add" version="opset1">
			<data auto_broadcast="numpy"/>
			<rt_info>
				<attribute name="fused_names" version="0" value="448, backbone.features.stage4.unit3.conv3.bn.bias, backbone.features.stage4.unit3.conv3.bn.running_mean, backbone.features.stage4.unit3.conv3.bn.running_var, backbone.features.stage4.unit3.conv3.bn.weight"/>
			</rt_info>
			<input>
				<port id="0" precision="FP32">
					<dim>1</dim>
					<dim>64</dim>
					<dim>30</dim>
					<dim>54</dim>
				</port>
				<port id="1" precision="FP32">
					<dim>1</dim>
					<dim>64</dim>
					<dim>1</dim>
					<dim>1</dim>
				</port>
			</input>
			<output>
				<port id="2" precision="FP32" names="448">
					<dim>1</dim>
					<dim>64</dim>
					<dim>30</dim>
					<dim>54</dim>
				</port>
			</output>
		</layer>
		<layer id="144" name="449" type="Add" version="opset1">
			<data auto_broadcast="numpy"/>
			<rt_info>
				<attribute name="fused_names" version="0" value="449"/>
			</rt_info>
			<input>
				<port id="0" precision="FP32">
					<dim>1</dim>
					<dim>64</dim>
					<dim>30</dim>
					<dim>54</dim>
				</port>
				<port id="1" precision="FP32">
					<dim>1</dim>
					<dim>64</dim>
					<dim>30</dim>
					<dim>54</dim>
				</port>
			</input>
			<output>
				<port id="2" precision="FP32" names="449">
					<dim>1</dim>
					<dim>64</dim>
					<dim>30</dim>
					<dim>54</dim>
				</port>
			</output>
		</layer>
		<layer id="145" name="Multiply_62265" type="Const" version="opset1">
			<data element_type="f32" shape="384, 64, 1, 1" offset="733372" size="98304"/>
			<output>
				<port id="0" precision="FP32">
					<dim>384</dim>
					<dim>64</dim>
					<dim>1</dim>
					<dim>1</dim>
				</port>
			</output>
		</layer>
		<layer id="146" name="Multiply_61827" type="Convolution" version="opset1">
			<data strides="1, 1" dilations="1, 1" pads_begin="0, 0" pads_end="0, 0" auto_pad="explicit"/>
			<rt_info>
				<attribute name="fused_names" version="0" value="450, 451, backbone.features.stage4.unit4.conv1.bn.bias, backbone.features.stage4.unit4.conv1.bn.running_mean, backbone.features.stage4.unit4.conv1.bn.running_var, backbone.features.stage4.unit4.conv1.bn.weight"/>
			</rt_info>
			<input>
				<port id="0" precision="FP32">
					<dim>1</dim>
					<dim>64</dim>
					<dim>30</dim>
					<dim>54</dim>
				</port>
				<port id="1" precision="FP32">
					<dim>384</dim>
					<dim>64</dim>
					<dim>1</dim>
					<dim>1</dim>
				</port>
			</input>
			<output>
				<port id="2" precision="FP32">
					<dim>1</dim>
					<dim>384</dim>
					<dim>30</dim>
					<dim>54</dim>
				</port>
			</output>
		</layer>
		<layer id="147" name="Constant_61832" type="Const" version="opset1">
			<data element_type="f32" shape="1, 384, 1, 1" offset="831676" size="1536"/>
			<output>
				<port id="0" precision="FP32">
					<dim>1</dim>
					<dim>384</dim>
					<dim>1</dim>
					<dim>1</dim>
				</port>
			</output>
		</layer>
		<layer id="148" name="451" type="Add" version="opset1">
			<data auto_broadcast="numpy"/>
			<rt_info>
				<attribute name="fused_names" version="0" value="451, backbone.features.stage4.unit4.conv1.bn.bias, backbone.features.stage4.unit4.conv1.bn.running_mean, backbone.features.stage4.unit4.conv1.bn.running_var, backbone.features.stage4.unit4.conv1.bn.weight"/>
			</rt_info>
			<input>
				<port id="0" precision="FP32">
					<dim>1</dim>
					<dim>384</dim>
					<dim>30</dim>
					<dim>54</dim>
				</port>
				<port id="1" precision="FP32">
					<dim>1</dim>
					<dim>384</dim>
					<dim>1</dim>
					<dim>1</dim>
				</port>
			</input>
			<output>
				<port id="2" precision="FP32" names="451">
					<dim>1</dim>
					<dim>384</dim>
					<dim>30</dim>
					<dim>54</dim>
				</port>
			</output>
		</layer>
		<layer id="149" name="452" type="Clamp" version="opset1">
			<data min="0" max="6"/>
			<rt_info>
				<attribute name="fused_names" version="0" value="452"/>
			</rt_info>
			<input>
				<port id="0" precision="FP32">
					<dim>1</dim>
					<dim>384</dim>
					<dim>30</dim>
					<dim>54</dim>
				</port>
			</input>
			<output>
				<port id="1" precision="FP32" names="452">
					<dim>1</dim>
					<dim>384</dim>
					<dim>30</dim>
					<dim>54</dim>
				</port>
			</output>
		</layer>
		<layer id="150" name="Multiply_62274" type="Const" version="opset1">
			<data element_type="f32" shape="384, 1, 1, 3, 3" offset="833212" size="13824"/>
			<output>
				<port id="0" precision="FP32">
					<dim>384</dim>
					<dim>1</dim>
					<dim>1</dim>
					<dim>3</dim>
					<dim>3</dim>
				</port>
			</output>
		</layer>
		<layer id="151" name="Multiply_61834" type="GroupConvolution" version="opset1">
			<data strides="1, 1" pads_begin="1, 1" pads_end="1, 1" dilations="1, 1" auto_pad="explicit"/>
			<rt_info>
				<attribute name="fused_names" version="0" value="454, backbone.features.stage4.unit4.conv2.bn.bias, backbone.features.stage4.unit4.conv2.bn.running_mean, backbone.features.stage4.unit4.conv2.bn.running_var, backbone.features.stage4.unit4.conv2.bn.weight"/>
			</rt_info>
			<input>
				<port id="0" precision="FP32">
					<dim>1</dim>
					<dim>384</dim>
					<dim>30</dim>
					<dim>54</dim>
				</port>
				<port id="1" precision="FP32">
					<dim>384</dim>
					<dim>1</dim>
					<dim>1</dim>
					<dim>3</dim>
					<dim>3</dim>
				</port>
			</input>
			<output>
				<port id="2" precision="FP32" names="453">
					<dim>1</dim>
					<dim>384</dim>
					<dim>30</dim>
					<dim>54</dim>
				</port>
			</output>
		</layer>
		<layer id="152" name="Constant_61839" type="Const" version="opset1">
			<data element_type="f32" shape="1, 384, 1, 1" offset="847036" size="1536"/>
			<output>
				<port id="0" precision="FP32">
					<dim>1</dim>
					<dim>384</dim>
					<dim>1</dim>
					<dim>1</dim>
				</port>
			</output>
		</layer>
		<layer id="153" name="454" type="Add" version="opset1">
			<data auto_broadcast="numpy"/>
			<rt_info>
				<attribute name="fused_names" version="0" value="454, backbone.features.stage4.unit4.conv2.bn.bias, backbone.features.stage4.unit4.conv2.bn.running_mean, backbone.features.stage4.unit4.conv2.bn.running_var, backbone.features.stage4.unit4.conv2.bn.weight"/>
			</rt_info>
			<input>
				<port id="0" precision="FP32">
					<dim>1</dim>
					<dim>384</dim>
					<dim>30</dim>
					<dim>54</dim>
				</port>
				<port id="1" precision="FP32">
					<dim>1</dim>
					<dim>384</dim>
					<dim>1</dim>
					<dim>1</dim>
				</port>
			</input>
			<output>
				<port id="2" precision="FP32" names="454">
					<dim>1</dim>
					<dim>384</dim>
					<dim>30</dim>
					<dim>54</dim>
				</port>
			</output>
		</layer>
		<layer id="154" name="455" type="Clamp" version="opset1">
			<data min="0" max="6"/>
			<rt_info>
				<attribute name="fused_names" version="0" value="455"/>
			</rt_info>
			<input>
				<port id="0" precision="FP32">
					<dim>1</dim>
					<dim>384</dim>
					<dim>30</dim>
					<dim>54</dim>
				</port>
			</input>
			<output>
				<port id="1" precision="FP32" names="455">
					<dim>1</dim>
					<dim>384</dim>
					<dim>30</dim>
					<dim>54</dim>
				</port>
			</output>
		</layer>
		<layer id="155" name="Multiply_62282" type="Const" version="opset1">
			<data element_type="f32" shape="64, 384, 1, 1" offset="848572" size="98304"/>
			<output>
				<port id="0" precision="FP32">
					<dim>64</dim>
					<dim>384</dim>
					<dim>1</dim>
					<dim>1</dim>
				</port>
			</output>
		</layer>
		<layer id="156" name="Multiply_61841" type="Convolution" version="opset1">
			<data strides="1, 1" dilations="1, 1" pads_begin="0, 0" pads_end="0, 0" auto_pad="explicit"/>
			<rt_info>
				<attribute name="fused_names" version="0" value="456, 457, backbone.features.stage4.unit4.conv3.bn.bias, backbone.features.stage4.unit4.conv3.bn.running_mean, backbone.features.stage4.unit4.conv3.bn.running_var, backbone.features.stage4.unit4.conv3.bn.weight"/>
			</rt_info>
			<input>
				<port id="0" precision="FP32">
					<dim>1</dim>
					<dim>384</dim>
					<dim>30</dim>
					<dim>54</dim>
				</port>
				<port id="1" precision="FP32">
					<dim>64</dim>
					<dim>384</dim>
					<dim>1</dim>
					<dim>1</dim>
				</port>
			</input>
			<output>
				<port id="2" precision="FP32">
					<dim>1</dim>
					<dim>64</dim>
					<dim>30</dim>
					<dim>54</dim>
				</port>
			</output>
		</layer>
		<layer id="157" name="Constant_61846" type="Const" version="opset1">
			<data element_type="f32" shape="1, 64, 1, 1" offset="946876" size="256"/>
			<output>
				<port id="0" precision="FP32">
					<dim>1</dim>
					<dim>64</dim>
					<dim>1</dim>
					<dim>1</dim>
				</port>
			</output>
		</layer>
		<layer id="158" name="457" type="Add" version="opset1">
			<data auto_broadcast="numpy"/>
			<rt_info>
				<attribute name="fused_names" version="0" value="457, backbone.features.stage4.unit4.conv3.bn.bias, backbone.features.stage4.unit4.conv3.bn.running_mean, backbone.features.stage4.unit4.conv3.bn.running_var, backbone.features.stage4.unit4.conv3.bn.weight"/>
			</rt_info>
			<input>
				<port id="0" precision="FP32">
					<dim>1</dim>
					<dim>64</dim>
					<dim>30</dim>
					<dim>54</dim>
				</port>
				<port id="1" precision="FP32">
					<dim>1</dim>
					<dim>64</dim>
					<dim>1</dim>
					<dim>1</dim>
				</port>
			</input>
			<output>
				<port id="2" precision="FP32" names="457">
					<dim>1</dim>
					<dim>64</dim>
					<dim>30</dim>
					<dim>54</dim>
				</port>
			</output>
		</layer>
		<layer id="159" name="458" type="Add" version="opset1">
			<data auto_broadcast="numpy"/>
			<rt_info>
				<attribute name="fused_names" version="0" value="458"/>
			</rt_info>
			<input>
				<port id="0" precision="FP32">
					<dim>1</dim>
					<dim>64</dim>
					<dim>30</dim>
					<dim>54</dim>
				</port>
				<port id="1" precision="FP32">
					<dim>1</dim>
					<dim>64</dim>
					<dim>30</dim>
					<dim>54</dim>
				</port>
			</input>
			<output>
				<port id="2" precision="FP32" names="458">
					<dim>1</dim>
					<dim>64</dim>
					<dim>30</dim>
					<dim>54</dim>
				</port>
			</output>
		</layer>
		<layer id="160" name="Multiply_62291" type="Const" version="opset1">
			<data element_type="f32" shape="384, 64, 1, 1" offset="947132" size="98304"/>
			<output>
				<port id="0" precision="FP32">
					<dim>384</dim>
					<dim>64</dim>
					<dim>1</dim>
					<dim>1</dim>
				</port>
			</output>
		</layer>
		<layer id="161" name="Multiply_61848" type="Convolution" version="opset1">
			<data strides="1, 1" dilations="1, 1" pads_begin="0, 0" pads_end="0, 0" auto_pad="explicit"/>
			<rt_info>
				<attribute name="fused_names" version="0" value="459, 460, backbone.features.stage4.unit5.conv1.bn.bias, backbone.features.stage4.unit5.conv1.bn.running_mean, backbone.features.stage4.unit5.conv1.bn.running_var, backbone.features.stage4.unit5.conv1.bn.weight"/>
			</rt_info>
			<input>
				<port id="0" precision="FP32">
					<dim>1</dim>
					<dim>64</dim>
					<dim>30</dim>
					<dim>54</dim>
				</port>
				<port id="1" precision="FP32">
					<dim>384</dim>
					<dim>64</dim>
					<dim>1</dim>
					<dim>1</dim>
				</port>
			</input>
			<output>
				<port id="2" precision="FP32">
					<dim>1</dim>
					<dim>384</dim>
					<dim>30</dim>
					<dim>54</dim>
				</port>
			</output>
		</layer>
		<layer id="162" name="Constant_61853" type="Const" version="opset1">
			<data element_type="f32" shape="1, 384, 1, 1" offset="1045436" size="1536"/>
			<output>
				<port id="0" precision="FP32">
					<dim>1</dim>
					<dim>384</dim>
					<dim>1</dim>
					<dim>1</dim>
				</port>
			</output>
		</layer>
		<layer id="163" name="460" type="Add" version="opset1">
			<data auto_broadcast="numpy"/>
			<rt_info>
				<attribute name="fused_names" version="0" value="460, backbone.features.stage4.unit5.conv1.bn.bias, backbone.features.stage4.unit5.conv1.bn.running_mean, backbone.features.stage4.unit5.conv1.bn.running_var, backbone.features.stage4.unit5.conv1.bn.weight"/>
			</rt_info>
			<input>
				<port id="0" precision="FP32">
					<dim>1</dim>
					<dim>384</dim>
					<dim>30</dim>
					<dim>54</dim>
				</port>
				<port id="1" precision="FP32">
					<dim>1</dim>
					<dim>384</dim>
					<dim>1</dim>
					<dim>1</dim>
				</port>
			</input>
			<output>
				<port id="2" precision="FP32" names="460">
					<dim>1</dim>
					<dim>384</dim>
					<dim>30</dim>
					<dim>54</dim>
				</port>
			</output>
		</layer>
		<layer id="164" name="461" type="Clamp" version="opset1">
			<data min="0" max="6"/>
			<rt_info>
				<attribute name="fused_names" version="0" value="461"/>
			</rt_info>
			<input>
				<port id="0" precision="FP32">
					<dim>1</dim>
					<dim>384</dim>
					<dim>30</dim>
					<dim>54</dim>
				</port>
			</input>
			<output>
				<port id="1" precision="FP32" names="461">
					<dim>1</dim>
					<dim>384</dim>
					<dim>30</dim>
					<dim>54</dim>
				</port>
			</output>
		</layer>
		<layer id="165" name="Multiply_62300" type="Const" version="opset1">
			<data element_type="f32" shape="384, 1, 1, 3, 3" offset="1046972" size="13824"/>
			<output>
				<port id="0" precision="FP32">
					<dim>384</dim>
					<dim>1</dim>
					<dim>1</dim>
					<dim>3</dim>
					<dim>3</dim>
				</port>
			</output>
		</layer>
		<layer id="166" name="Multiply_61855" type="GroupConvolution" version="opset1">
			<data strides="1, 1" pads_begin="1, 1" pads_end="1, 1" dilations="1, 1" auto_pad="explicit"/>
			<rt_info>
				<attribute name="fused_names" version="0" value="463, backbone.features.stage4.unit5.conv2.bn.bias, backbone.features.stage4.unit5.conv2.bn.running_mean, backbone.features.stage4.unit5.conv2.bn.running_var, backbone.features.stage4.unit5.conv2.bn.weight"/>
			</rt_info>
			<input>
				<port id="0" precision="FP32">
					<dim>1</dim>
					<dim>384</dim>
					<dim>30</dim>
					<dim>54</dim>
				</port>
				<port id="1" precision="FP32">
					<dim>384</dim>
					<dim>1</dim>
					<dim>1</dim>
					<dim>3</dim>
					<dim>3</dim>
				</port>
			</input>
			<output>
				<port id="2" precision="FP32" names="462">
					<dim>1</dim>
					<dim>384</dim>
					<dim>30</dim>
					<dim>54</dim>
				</port>
			</output>
		</layer>
		<layer id="167" name="Constant_61860" type="Const" version="opset1">
			<data element_type="f32" shape="1, 384, 1, 1" offset="1060796" size="1536"/>
			<output>
				<port id="0" precision="FP32">
					<dim>1</dim>
					<dim>384</dim>
					<dim>1</dim>
					<dim>1</dim>
				</port>
			</output>
		</layer>
		<layer id="168" name="463" type="Add" version="opset1">
			<data auto_broadcast="numpy"/>
			<rt_info>
				<attribute name="fused_names" version="0" value="463, backbone.features.stage4.unit5.conv2.bn.bias, backbone.features.stage4.unit5.conv2.bn.running_mean, backbone.features.stage4.unit5.conv2.bn.running_var, backbone.features.stage4.unit5.conv2.bn.weight"/>
			</rt_info>
			<input>
				<port id="0" precision="FP32">
					<dim>1</dim>
					<dim>384</dim>
					<dim>30</dim>
					<dim>54</dim>
				</port>
				<port id="1" precision="FP32">
					<dim>1</dim>
					<dim>384</dim>
					<dim>1</dim>
					<dim>1</dim>
				</port>
			</input>
			<output>
				<port id="2" precision="FP32" names="463">
					<dim>1</dim>
					<dim>384</dim>
					<dim>30</dim>
					<dim>54</dim>
				</port>
			</output>
		</layer>
		<layer id="169" name="464" type="Clamp" version="opset1">
			<data min="0" max="6"/>
			<rt_info>
				<attribute name="fused_names" version="0" value="464"/>
			</rt_info>
			<input>
				<port id="0" precision="FP32">
					<dim>1</dim>
					<dim>384</dim>
					<dim>30</dim>
					<dim>54</dim>
				</port>
			</input>
			<output>
				<port id="1" precision="FP32" names="464">
					<dim>1</dim>
					<dim>384</dim>
					<dim>30</dim>
					<dim>54</dim>
				</port>
			</output>
		</layer>
		<layer id="170" name="Multiply_62308" type="Const" version="opset1">
			<data element_type="f32" shape="96, 384, 1, 1" offset="1062332" size="147456"/>
			<output>
				<port id="0" precision="FP32">
					<dim>96</dim>
					<dim>384</dim>
					<dim>1</dim>
					<dim>1</dim>
				</port>
			</output>
		</layer>
		<layer id="171" name="Multiply_61862" type="Convolution" version="opset1">
			<data strides="1, 1" dilations="1, 1" pads_begin="0, 0" pads_end="0, 0" auto_pad="explicit"/>
			<rt_info>
				<attribute name="fused_names" version="0" value="465, 466, backbone.features.stage4.unit5.conv3.bn.bias, backbone.features.stage4.unit5.conv3.bn.running_mean, backbone.features.stage4.unit5.conv3.bn.running_var, backbone.features.stage4.unit5.conv3.bn.weight"/>
			</rt_info>
			<input>
				<port id="0" precision="FP32">
					<dim>1</dim>
					<dim>384</dim>
					<dim>30</dim>
					<dim>54</dim>
				</port>
				<port id="1" precision="FP32">
					<dim>96</dim>
					<dim>384</dim>
					<dim>1</dim>
					<dim>1</dim>
				</port>
			</input>
			<output>
				<port id="2" precision="FP32">
					<dim>1</dim>
					<dim>96</dim>
					<dim>30</dim>
					<dim>54</dim>
				</port>
			</output>
		</layer>
		<layer id="172" name="Constant_61867" type="Const" version="opset1">
			<data element_type="f32" shape="1, 96, 1, 1" offset="1209788" size="384"/>
			<output>
				<port id="0" precision="FP32">
					<dim>1</dim>
					<dim>96</dim>
					<dim>1</dim>
					<dim>1</dim>
				</port>
			</output>
		</layer>
		<layer id="173" name="466" type="Add" version="opset1">
			<data auto_broadcast="numpy"/>
			<rt_info>
				<attribute name="fused_names" version="0" value="466, backbone.features.stage4.unit5.conv3.bn.bias, backbone.features.stage4.unit5.conv3.bn.running_mean, backbone.features.stage4.unit5.conv3.bn.running_var, backbone.features.stage4.unit5.conv3.bn.weight"/>
			</rt_info>
			<input>
				<port id="0" precision="FP32">
					<dim>1</dim>
					<dim>96</dim>
					<dim>30</dim>
					<dim>54</dim>
				</port>
				<port id="1" precision="FP32">
					<dim>1</dim>
					<dim>96</dim>
					<dim>1</dim>
					<dim>1</dim>
				</port>
			</input>
			<output>
				<port id="2" precision="FP32" names="466">
					<dim>1</dim>
					<dim>96</dim>
					<dim>30</dim>
					<dim>54</dim>
				</port>
			</output>
		</layer>
		<layer id="174" name="Multiply_62317" type="Const" version="opset1">
			<data element_type="f32" shape="576, 96, 1, 1" offset="1210172" size="221184"/>
			<output>
				<port id="0" precision="FP32">
					<dim>576</dim>
					<dim>96</dim>
					<dim>1</dim>
					<dim>1</dim>
				</port>
			</output>
		</layer>
		<layer id="175" name="Multiply_61869" type="Convolution" version="opset1">
			<data strides="1, 1" dilations="1, 1" pads_begin="0, 0" pads_end="0, 0" auto_pad="explicit"/>
			<rt_info>
				<attribute name="fused_names" version="0" value="467, 468, backbone.features.stage4.unit6.conv1.bn.bias, backbone.features.stage4.unit6.conv1.bn.running_mean, backbone.features.stage4.unit6.conv1.bn.running_var, backbone.features.stage4.unit6.conv1.bn.weight"/>
			</rt_info>
			<input>
				<port id="0" precision="FP32">
					<dim>1</dim>
					<dim>96</dim>
					<dim>30</dim>
					<dim>54</dim>
				</port>
				<port id="1" precision="FP32">
					<dim>576</dim>
					<dim>96</dim>
					<dim>1</dim>
					<dim>1</dim>
				</port>
			</input>
			<output>
				<port id="2" precision="FP32">
					<dim>1</dim>
					<dim>576</dim>
					<dim>30</dim>
					<dim>54</dim>
				</port>
			</output>
		</layer>
		<layer id="176" name="Constant_61874" type="Const" version="opset1">
			<data element_type="f32" shape="1, 576, 1, 1" offset="1431356" size="2304"/>
			<output>
				<port id="0" precision="FP32">
					<dim>1</dim>
					<dim>576</dim>
					<dim>1</dim>
					<dim>1</dim>
				</port>
			</output>
		</layer>
		<layer id="177" name="468" type="Add" version="opset1">
			<data auto_broadcast="numpy"/>
			<rt_info>
				<attribute name="fused_names" version="0" value="468, backbone.features.stage4.unit6.conv1.bn.bias, backbone.features.stage4.unit6.conv1.bn.running_mean, backbone.features.stage4.unit6.conv1.bn.running_var, backbone.features.stage4.unit6.conv1.bn.weight"/>
			</rt_info>
			<input>
				<port id="0" precision="FP32">
					<dim>1</dim>
					<dim>576</dim>
					<dim>30</dim>
					<dim>54</dim>
				</port>
				<port id="1" precision="FP32">
					<dim>1</dim>
					<dim>576</dim>
					<dim>1</dim>
					<dim>1</dim>
				</port>
			</input>
			<output>
				<port id="2" precision="FP32" names="468">
					<dim>1</dim>
					<dim>576</dim>
					<dim>30</dim>
					<dim>54</dim>
				</port>
			</output>
		</layer>
		<layer id="178" name="469" type="Clamp" version="opset1">
			<data min="0" max="6"/>
			<rt_info>
				<attribute name="fused_names" version="0" value="469"/>
			</rt_info>
			<input>
				<port id="0" precision="FP32">
					<dim>1</dim>
					<dim>576</dim>
					<dim>30</dim>
					<dim>54</dim>
				</port>
			</input>
			<output>
				<port id="1" precision="FP32" names="469">
					<dim>1</dim>
					<dim>576</dim>
					<dim>30</dim>
					<dim>54</dim>
				</port>
			</output>
		</layer>
		<layer id="179" name="Multiply_62326" type="Const" version="opset1">
			<data element_type="f32" shape="576, 1, 1, 3, 3" offset="1433660" size="20736"/>
			<output>
				<port id="0" precision="FP32">
					<dim>576</dim>
					<dim>1</dim>
					<dim>1</dim>
					<dim>3</dim>
					<dim>3</dim>
				</port>
			</output>
		</layer>
		<layer id="180" name="Multiply_61876" type="GroupConvolution" version="opset1">
			<data strides="1, 1" pads_begin="1, 1" pads_end="1, 1" dilations="1, 1" auto_pad="explicit"/>
			<rt_info>
				<attribute name="fused_names" version="0" value="471, backbone.features.stage4.unit6.conv2.bn.bias, backbone.features.stage4.unit6.conv2.bn.running_mean, backbone.features.stage4.unit6.conv2.bn.running_var, backbone.features.stage4.unit6.conv2.bn.weight"/>
			</rt_info>
			<input>
				<port id="0" precision="FP32">
					<dim>1</dim>
					<dim>576</dim>
					<dim>30</dim>
					<dim>54</dim>
				</port>
				<port id="1" precision="FP32">
					<dim>576</dim>
					<dim>1</dim>
					<dim>1</dim>
					<dim>3</dim>
					<dim>3</dim>
				</port>
			</input>
			<output>
				<port id="2" precision="FP32" names="470">
					<dim>1</dim>
					<dim>576</dim>
					<dim>30</dim>
					<dim>54</dim>
				</port>
			</output>
		</layer>
		<layer id="181" name="Constant_61881" type="Const" version="opset1">
			<data element_type="f32" shape="1, 576, 1, 1" offset="1454396" size="2304"/>
			<output>
				<port id="0" precision="FP32">
					<dim>1</dim>
					<dim>576</dim>
					<dim>1</dim>
					<dim>1</dim>
				</port>
			</output>
		</layer>
		<layer id="182" name="471" type="Add" version="opset1">
			<data auto_broadcast="numpy"/>
			<rt_info>
				<attribute name="fused_names" version="0" value="471, backbone.features.stage4.unit6.conv2.bn.bias, backbone.features.stage4.unit6.conv2.bn.running_mean, backbone.features.stage4.unit6.conv2.bn.running_var, backbone.features.stage4.unit6.conv2.bn.weight"/>
			</rt_info>
			<input>
				<port id="0" precision="FP32">
					<dim>1</dim>
					<dim>576</dim>
					<dim>30</dim>
					<dim>54</dim>
				</port>
				<port id="1" precision="FP32">
					<dim>1</dim>
					<dim>576</dim>
					<dim>1</dim>
					<dim>1</dim>
				</port>
			</input>
			<output>
				<port id="2" precision="FP32" names="471">
					<dim>1</dim>
					<dim>576</dim>
					<dim>30</dim>
					<dim>54</dim>
				</port>
			</output>
		</layer>
		<layer id="183" name="472" type="Clamp" version="opset1">
			<data min="0" max="6"/>
			<rt_info>
				<attribute name="fused_names" version="0" value="472"/>
			</rt_info>
			<input>
				<port id="0" precision="FP32">
					<dim>1</dim>
					<dim>576</dim>
					<dim>30</dim>
					<dim>54</dim>
				</port>
			</input>
			<output>
				<port id="1" precision="FP32" names="472">
					<dim>1</dim>
					<dim>576</dim>
					<dim>30</dim>
					<dim>54</dim>
				</port>
			</output>
		</layer>
		<layer id="184" name="Multiply_62334" type="Const" version="opset1">
			<data element_type="f32" shape="96, 576, 1, 1" offset="1456700" size="221184"/>
			<output>
				<port id="0" precision="FP32">
					<dim>96</dim>
					<dim>576</dim>
					<dim>1</dim>
					<dim>1</dim>
				</port>
			</output>
		</layer>
		<layer id="185" name="Multiply_61883" type="Convolution" version="opset1">
			<data strides="1, 1" dilations="1, 1" pads_begin="0, 0" pads_end="0, 0" auto_pad="explicit"/>
			<rt_info>
				<attribute name="fused_names" version="0" value="473, 474, backbone.features.stage4.unit6.conv3.bn.bias, backbone.features.stage4.unit6.conv3.bn.running_mean, backbone.features.stage4.unit6.conv3.bn.running_var, backbone.features.stage4.unit6.conv3.bn.weight"/>
			</rt_info>
			<input>
				<port id="0" precision="FP32">
					<dim>1</dim>
					<dim>576</dim>
					<dim>30</dim>
					<dim>54</dim>
				</port>
				<port id="1" precision="FP32">
					<dim>96</dim>
					<dim>576</dim>
					<dim>1</dim>
					<dim>1</dim>
				</port>
			</input>
			<output>
				<port id="2" precision="FP32">
					<dim>1</dim>
					<dim>96</dim>
					<dim>30</dim>
					<dim>54</dim>
				</port>
			</output>
		</layer>
		<layer id="186" name="Constant_61888" type="Const" version="opset1">
			<data element_type="f32" shape="1, 96, 1, 1" offset="1677884" size="384"/>
			<output>
				<port id="0" precision="FP32">
					<dim>1</dim>
					<dim>96</dim>
					<dim>1</dim>
					<dim>1</dim>
				</port>
			</output>
		</layer>
		<layer id="187" name="474" type="Add" version="opset1">
			<data auto_broadcast="numpy"/>
			<rt_info>
				<attribute name="fused_names" version="0" value="474, backbone.features.stage4.unit6.conv3.bn.bias, backbone.features.stage4.unit6.conv3.bn.running_mean, backbone.features.stage4.unit6.conv3.bn.running_var, backbone.features.stage4.unit6.conv3.bn.weight"/>
			</rt_info>
			<input>
				<port id="0" precision="FP32">
					<dim>1</dim>
					<dim>96</dim>
					<dim>30</dim>
					<dim>54</dim>
				</port>
				<port id="1" precision="FP32">
					<dim>1</dim>
					<dim>96</dim>
					<dim>1</dim>
					<dim>1</dim>
				</port>
			</input>
			<output>
				<port id="2" precision="FP32" names="474">
					<dim>1</dim>
					<dim>96</dim>
					<dim>30</dim>
					<dim>54</dim>
				</port>
			</output>
		</layer>
		<layer id="188" name="475" type="Add" version="opset1">
			<data auto_broadcast="numpy"/>
			<rt_info>
				<attribute name="fused_names" version="0" value="475"/>
			</rt_info>
			<input>
				<port id="0" precision="FP32">
					<dim>1</dim>
					<dim>96</dim>
					<dim>30</dim>
					<dim>54</dim>
				</port>
				<port id="1" precision="FP32">
					<dim>1</dim>
					<dim>96</dim>
					<dim>30</dim>
					<dim>54</dim>
				</port>
			</input>
			<output>
				<port id="2" precision="FP32" names="475">
					<dim>1</dim>
					<dim>96</dim>
					<dim>30</dim>
					<dim>54</dim>
				</port>
			</output>
		</layer>
		<layer id="189" name="Multiply_62343" type="Const" version="opset1">
			<data element_type="f32" shape="576, 96, 1, 1" offset="1678268" size="221184"/>
			<output>
				<port id="0" precision="FP32">
					<dim>576</dim>
					<dim>96</dim>
					<dim>1</dim>
					<dim>1</dim>
				</port>
			</output>
		</layer>
		<layer id="190" name="Multiply_61890" type="Convolution" version="opset1">
			<data strides="1, 1" dilations="1, 1" pads_begin="0, 0" pads_end="0, 0" auto_pad="explicit"/>
			<rt_info>
				<attribute name="fused_names" version="0" value="476, 477, backbone.features.stage4.unit7.conv1.bn.bias, backbone.features.stage4.unit7.conv1.bn.running_mean, backbone.features.stage4.unit7.conv1.bn.running_var, backbone.features.stage4.unit7.conv1.bn.weight"/>
			</rt_info>
			<input>
				<port id="0" precision="FP32">
					<dim>1</dim>
					<dim>96</dim>
					<dim>30</dim>
					<dim>54</dim>
				</port>
				<port id="1" precision="FP32">
					<dim>576</dim>
					<dim>96</dim>
					<dim>1</dim>
					<dim>1</dim>
				</port>
			</input>
			<output>
				<port id="2" precision="FP32">
					<dim>1</dim>
					<dim>576</dim>
					<dim>30</dim>
					<dim>54</dim>
				</port>
			</output>
		</layer>
		<layer id="191" name="Constant_61895" type="Const" version="opset1">
			<data element_type="f32" shape="1, 576, 1, 1" offset="1899452" size="2304"/>
			<output>
				<port id="0" precision="FP32">
					<dim>1</dim>
					<dim>576</dim>
					<dim>1</dim>
					<dim>1</dim>
				</port>
			</output>
		</layer>
		<layer id="192" name="477" type="Add" version="opset1">
			<data auto_broadcast="numpy"/>
			<rt_info>
				<attribute name="fused_names" version="0" value="477, backbone.features.stage4.unit7.conv1.bn.bias, backbone.features.stage4.unit7.conv1.bn.running_mean, backbone.features.stage4.unit7.conv1.bn.running_var, backbone.features.stage4.unit7.conv1.bn.weight"/>
			</rt_info>
			<input>
				<port id="0" precision="FP32">
					<dim>1</dim>
					<dim>576</dim>
					<dim>30</dim>
					<dim>54</dim>
				</port>
				<port id="1" precision="FP32">
					<dim>1</dim>
					<dim>576</dim>
					<dim>1</dim>
					<dim>1</dim>
				</port>
			</input>
			<output>
				<port id="2" precision="FP32" names="477">
					<dim>1</dim>
					<dim>576</dim>
					<dim>30</dim>
					<dim>54</dim>
				</port>
			</output>
		</layer>
		<layer id="193" name="478" type="Clamp" version="opset1">
			<data min="0" max="6"/>
			<rt_info>
				<attribute name="fused_names" version="0" value="478"/>
			</rt_info>
			<input>
				<port id="0" precision="FP32">
					<dim>1</dim>
					<dim>576</dim>
					<dim>30</dim>
					<dim>54</dim>
				</port>
			</input>
			<output>
				<port id="1" precision="FP32" names="478">
					<dim>1</dim>
					<dim>576</dim>
					<dim>30</dim>
					<dim>54</dim>
				</port>
			</output>
		</layer>
		<layer id="194" name="Multiply_62352" type="Const" version="opset1">
			<data element_type="f32" shape="576, 1, 1, 3, 3" offset="1901756" size="20736"/>
			<output>
				<port id="0" precision="FP32">
					<dim>576</dim>
					<dim>1</dim>
					<dim>1</dim>
					<dim>3</dim>
					<dim>3</dim>
				</port>
			</output>
		</layer>
		<layer id="195" name="Multiply_61897" type="GroupConvolution" version="opset1">
			<data strides="1, 1" pads_begin="1, 1" pads_end="1, 1" dilations="1, 1" auto_pad="explicit"/>
			<rt_info>
				<attribute name="fused_names" version="0" value="480, backbone.features.stage4.unit7.conv2.bn.bias, backbone.features.stage4.unit7.conv2.bn.running_mean, backbone.features.stage4.unit7.conv2.bn.running_var, backbone.features.stage4.unit7.conv2.bn.weight"/>
			</rt_info>
			<input>
				<port id="0" precision="FP32">
					<dim>1</dim>
					<dim>576</dim>
					<dim>30</dim>
					<dim>54</dim>
				</port>
				<port id="1" precision="FP32">
					<dim>576</dim>
					<dim>1</dim>
					<dim>1</dim>
					<dim>3</dim>
					<dim>3</dim>
				</port>
			</input>
			<output>
				<port id="2" precision="FP32" names="479">
					<dim>1</dim>
					<dim>576</dim>
					<dim>30</dim>
					<dim>54</dim>
				</port>
			</output>
		</layer>
		<layer id="196" name="Constant_61902" type="Const" version="opset1">
			<data element_type="f32" shape="1, 576, 1, 1" offset="1922492" size="2304"/>
			<output>
				<port id="0" precision="FP32">
					<dim>1</dim>
					<dim>576</dim>
					<dim>1</dim>
					<dim>1</dim>
				</port>
			</output>
		</layer>
		<layer id="197" name="480" type="Add" version="opset1">
			<data auto_broadcast="numpy"/>
			<rt_info>
				<attribute name="fused_names" version="0" value="480, backbone.features.stage4.unit7.conv2.bn.bias, backbone.features.stage4.unit7.conv2.bn.running_mean, backbone.features.stage4.unit7.conv2.bn.running_var, backbone.features.stage4.unit7.conv2.bn.weight"/>
			</rt_info>
			<input>
				<port id="0" precision="FP32">
					<dim>1</dim>
					<dim>576</dim>
					<dim>30</dim>
					<dim>54</dim>
				</port>
				<port id="1" precision="FP32">
					<dim>1</dim>
					<dim>576</dim>
					<dim>1</dim>
					<dim>1</dim>
				</port>
			</input>
			<output>
				<port id="2" precision="FP32" names="480">
					<dim>1</dim>
					<dim>576</dim>
					<dim>30</dim>
					<dim>54</dim>
				</port>
			</output>
		</layer>
		<layer id="198" name="481" type="Clamp" version="opset1">
			<data min="0" max="6"/>
			<rt_info>
				<attribute name="fused_names" version="0" value="481"/>
			</rt_info>
			<input>
				<port id="0" precision="FP32">
					<dim>1</dim>
					<dim>576</dim>
					<dim>30</dim>
					<dim>54</dim>
				</port>
			</input>
			<output>
				<port id="1" precision="FP32" names="481">
					<dim>1</dim>
					<dim>576</dim>
					<dim>30</dim>
					<dim>54</dim>
				</port>
			</output>
		</layer>
		<layer id="199" name="Multiply_62360" type="Const" version="opset1">
			<data element_type="f32" shape="96, 576, 1, 1" offset="1924796" size="221184"/>
			<output>
				<port id="0" precision="FP32">
					<dim>96</dim>
					<dim>576</dim>
					<dim>1</dim>
					<dim>1</dim>
				</port>
			</output>
		</layer>
		<layer id="200" name="Multiply_61904" type="Convolution" version="opset1">
			<data strides="1, 1" dilations="1, 1" pads_begin="0, 0" pads_end="0, 0" auto_pad="explicit"/>
			<rt_info>
				<attribute name="fused_names" version="0" value="482, 483, backbone.features.stage4.unit7.conv3.bn.bias, backbone.features.stage4.unit7.conv3.bn.running_mean, backbone.features.stage4.unit7.conv3.bn.running_var, backbone.features.stage4.unit7.conv3.bn.weight"/>
			</rt_info>
			<input>
				<port id="0" precision="FP32">
					<dim>1</dim>
					<dim>576</dim>
					<dim>30</dim>
					<dim>54</dim>
				</port>
				<port id="1" precision="FP32">
					<dim>96</dim>
					<dim>576</dim>
					<dim>1</dim>
					<dim>1</dim>
				</port>
			</input>
			<output>
				<port id="2" precision="FP32">
					<dim>1</dim>
					<dim>96</dim>
					<dim>30</dim>
					<dim>54</dim>
				</port>
			</output>
		</layer>
		<layer id="201" name="Constant_61909" type="Const" version="opset1">
			<data element_type="f32" shape="1, 96, 1, 1" offset="2145980" size="384"/>
			<output>
				<port id="0" precision="FP32">
					<dim>1</dim>
					<dim>96</dim>
					<dim>1</dim>
					<dim>1</dim>
				</port>
			</output>
		</layer>
		<layer id="202" name="483" type="Add" version="opset1">
			<data auto_broadcast="numpy"/>
			<rt_info>
				<attribute name="fused_names" version="0" value="483, backbone.features.stage4.unit7.conv3.bn.bias, backbone.features.stage4.unit7.conv3.bn.running_mean, backbone.features.stage4.unit7.conv3.bn.running_var, backbone.features.stage4.unit7.conv3.bn.weight"/>
			</rt_info>
			<input>
				<port id="0" precision="FP32">
					<dim>1</dim>
					<dim>96</dim>
					<dim>30</dim>
					<dim>54</dim>
				</port>
				<port id="1" precision="FP32">
					<dim>1</dim>
					<dim>96</dim>
					<dim>1</dim>
					<dim>1</dim>
				</port>
			</input>
			<output>
				<port id="2" precision="FP32" names="483">
					<dim>1</dim>
					<dim>96</dim>
					<dim>30</dim>
					<dim>54</dim>
				</port>
			</output>
		</layer>
		<layer id="203" name="484" type="Add" version="opset1">
			<data auto_broadcast="numpy"/>
			<rt_info>
				<attribute name="fused_names" version="0" value="484"/>
			</rt_info>
			<input>
				<port id="0" precision="FP32">
					<dim>1</dim>
					<dim>96</dim>
					<dim>30</dim>
					<dim>54</dim>
				</port>
				<port id="1" precision="FP32">
					<dim>1</dim>
					<dim>96</dim>
					<dim>30</dim>
					<dim>54</dim>
				</port>
			</input>
			<output>
				<port id="2" precision="FP32" names="484">
					<dim>1</dim>
					<dim>96</dim>
					<dim>30</dim>
					<dim>54</dim>
				</port>
			</output>
		</layer>
		<layer id="204" name="neck.lateral_convs.1.conv.weight" type="Const" version="opset1">
			<data element_type="f32" shape="32, 96, 1, 1" offset="2146364" size="12288"/>
			<rt_info>
				<attribute name="fused_names" version="0" value="neck.lateral_convs.1.conv.weight"/>
			</rt_info>
			<output>
				<port id="0" precision="FP32" names="neck.lateral_convs.1.conv.weight">
					<dim>32</dim>
					<dim>96</dim>
					<dim>1</dim>
					<dim>1</dim>
				</port>
			</output>
		</layer>
		<layer id="205" name="Convolution_2225" type="Convolution" version="opset1">
			<data strides="1, 1" dilations="1, 1" pads_begin="0, 0" pads_end="0, 0" auto_pad="explicit"/>
			<rt_info>
				<attribute name="fused_names" version="0" value="Convolution_2225"/>
			</rt_info>
			<input>
				<port id="0" precision="FP32">
					<dim>1</dim>
					<dim>96</dim>
					<dim>30</dim>
					<dim>54</dim>
				</port>
				<port id="1" precision="FP32">
					<dim>32</dim>
					<dim>96</dim>
					<dim>1</dim>
					<dim>1</dim>
				</port>
			</input>
			<output>
				<port id="2" precision="FP32">
					<dim>1</dim>
					<dim>32</dim>
					<dim>30</dim>
					<dim>54</dim>
				</port>
			</output>
		</layer>
		<layer id="206" name="Reshape_2245" type="Const" version="opset1">
			<data element_type="f32" shape="1, 32, 1, 1" offset="2158652" size="128"/>
			<output>
				<port id="0" precision="FP32">
					<dim>1</dim>
					<dim>32</dim>
					<dim>1</dim>
					<dim>1</dim>
				</port>
			</output>
		</layer>
		<layer id="207" name="520" type="Add" version="opset1">
			<data auto_broadcast="numpy"/>
			<rt_info>
				<attribute name="fused_names" version="0" value="520, Concat_2244, Reshape_2245"/>
			</rt_info>
			<input>
				<port id="0" precision="FP32">
					<dim>1</dim>
					<dim>32</dim>
					<dim>30</dim>
					<dim>54</dim>
				</port>
				<port id="1" precision="FP32">
					<dim>1</dim>
					<dim>32</dim>
					<dim>1</dim>
					<dim>1</dim>
				</port>
			</input>
			<output>
				<port id="2" precision="FP32" names="520">
					<dim>1</dim>
					<dim>32</dim>
					<dim>30</dim>
					<dim>54</dim>
				</port>
			</output>
		</layer>
		<layer id="208" name="Multiply_62369" type="Const" version="opset1">
			<data element_type="f32" shape="576, 96, 1, 1" offset="2158780" size="221184"/>
			<output>
				<port id="0" precision="FP32">
					<dim>576</dim>
					<dim>96</dim>
					<dim>1</dim>
					<dim>1</dim>
				</port>
			</output>
		</layer>
		<layer id="209" name="Multiply_61911" type="Convolution" version="opset1">
			<data strides="1, 1" dilations="1, 1" pads_begin="0, 0" pads_end="0, 0" auto_pad="explicit"/>
			<rt_info>
				<attribute name="fused_names" version="0" value="485, 486, backbone.features.stage5.unit1.conv1.bn.bias, backbone.features.stage5.unit1.conv1.bn.running_mean, backbone.features.stage5.unit1.conv1.bn.running_var, backbone.features.stage5.unit1.conv1.bn.weight"/>
			</rt_info>
			<input>
				<port id="0" precision="FP32">
					<dim>1</dim>
					<dim>96</dim>
					<dim>30</dim>
					<dim>54</dim>
				</port>
				<port id="1" precision="FP32">
					<dim>576</dim>
					<dim>96</dim>
					<dim>1</dim>
					<dim>1</dim>
				</port>
			</input>
			<output>
				<port id="2" precision="FP32">
					<dim>1</dim>
					<dim>576</dim>
					<dim>30</dim>
					<dim>54</dim>
				</port>
			</output>
		</layer>
		<layer id="210" name="Constant_61916" type="Const" version="opset1">
			<data element_type="f32" shape="1, 576, 1, 1" offset="2379964" size="2304"/>
			<output>
				<port id="0" precision="FP32">
					<dim>1</dim>
					<dim>576</dim>
					<dim>1</dim>
					<dim>1</dim>
				</port>
			</output>
		</layer>
		<layer id="211" name="486" type="Add" version="opset1">
			<data auto_broadcast="numpy"/>
			<rt_info>
				<attribute name="fused_names" version="0" value="486, backbone.features.stage5.unit1.conv1.bn.bias, backbone.features.stage5.unit1.conv1.bn.running_mean, backbone.features.stage5.unit1.conv1.bn.running_var, backbone.features.stage5.unit1.conv1.bn.weight"/>
			</rt_info>
			<input>
				<port id="0" precision="FP32">
					<dim>1</dim>
					<dim>576</dim>
					<dim>30</dim>
					<dim>54</dim>
				</port>
				<port id="1" precision="FP32">
					<dim>1</dim>
					<dim>576</dim>
					<dim>1</dim>
					<dim>1</dim>
				</port>
			</input>
			<output>
				<port id="2" precision="FP32" names="486">
					<dim>1</dim>
					<dim>576</dim>
					<dim>30</dim>
					<dim>54</dim>
				</port>
			</output>
		</layer>
		<layer id="212" name="487" type="Clamp" version="opset1">
			<data min="0" max="6"/>
			<rt_info>
				<attribute name="fused_names" version="0" value="487"/>
			</rt_info>
			<input>
				<port id="0" precision="FP32">
					<dim>1</dim>
					<dim>576</dim>
					<dim>30</dim>
					<dim>54</dim>
				</port>
			</input>
			<output>
				<port id="1" precision="FP32" names="487">
					<dim>1</dim>
					<dim>576</dim>
					<dim>30</dim>
					<dim>54</dim>
				</port>
			</output>
		</layer>
		<layer id="213" name="Multiply_62378" type="Const" version="opset1">
			<data element_type="f32" shape="576, 1, 1, 3, 3" offset="2382268" size="20736"/>
			<output>
				<port id="0" precision="FP32">
					<dim>576</dim>
					<dim>1</dim>
					<dim>1</dim>
					<dim>3</dim>
					<dim>3</dim>
				</port>
			</output>
		</layer>
		<layer id="214" name="Multiply_61918" type="GroupConvolution" version="opset1">
			<data strides="2, 2" pads_begin="1, 1" pads_end="1, 1" dilations="1, 1" auto_pad="explicit"/>
			<rt_info>
				<attribute name="fused_names" version="0" value="489, backbone.features.stage5.unit1.conv2.bn.bias, backbone.features.stage5.unit1.conv2.bn.running_mean, backbone.features.stage5.unit1.conv2.bn.running_var, backbone.features.stage5.unit1.conv2.bn.weight"/>
			</rt_info>
			<input>
				<port id="0" precision="FP32">
					<dim>1</dim>
					<dim>576</dim>
					<dim>30</dim>
					<dim>54</dim>
				</port>
				<port id="1" precision="FP32">
					<dim>576</dim>
					<dim>1</dim>
					<dim>1</dim>
					<dim>3</dim>
					<dim>3</dim>
				</port>
			</input>
			<output>
				<port id="2" precision="FP32" names="488">
					<dim>1</dim>
					<dim>576</dim>
					<dim>15</dim>
					<dim>27</dim>
				</port>
			</output>
		</layer>
		<layer id="215" name="Constant_61923" type="Const" version="opset1">
			<data element_type="f32" shape="1, 576, 1, 1" offset="2403004" size="2304"/>
			<output>
				<port id="0" precision="FP32">
					<dim>1</dim>
					<dim>576</dim>
					<dim>1</dim>
					<dim>1</dim>
				</port>
			</output>
		</layer>
		<layer id="216" name="489" type="Add" version="opset1">
			<data auto_broadcast="numpy"/>
			<rt_info>
				<attribute name="fused_names" version="0" value="489, backbone.features.stage5.unit1.conv2.bn.bias, backbone.features.stage5.unit1.conv2.bn.running_mean, backbone.features.stage5.unit1.conv2.bn.running_var, backbone.features.stage5.unit1.conv2.bn.weight"/>
			</rt_info>
			<input>
				<port id="0" precision="FP32">
					<dim>1</dim>
					<dim>576</dim>
					<dim>15</dim>
					<dim>27</dim>
				</port>
				<port id="1" precision="FP32">
					<dim>1</dim>
					<dim>576</dim>
					<dim>1</dim>
					<dim>1</dim>
				</port>
			</input>
			<output>
				<port id="2" precision="FP32" names="489">
					<dim>1</dim>
					<dim>576</dim>
					<dim>15</dim>
					<dim>27</dim>
				</port>
			</output>
		</layer>
		<layer id="217" name="490" type="Clamp" version="opset1">
			<data min="0" max="6"/>
			<rt_info>
				<attribute name="fused_names" version="0" value="490"/>
			</rt_info>
			<input>
				<port id="0" precision="FP32">
					<dim>1</dim>
					<dim>576</dim>
					<dim>15</dim>
					<dim>27</dim>
				</port>
			</input>
			<output>
				<port id="1" precision="FP32" names="490">
					<dim>1</dim>
					<dim>576</dim>
					<dim>15</dim>
					<dim>27</dim>
				</port>
			</output>
		</layer>
		<layer id="218" name="Multiply_62386" type="Const" version="opset1">
			<data element_type="f32" shape="160, 576, 1, 1" offset="2405308" size="368640"/>
			<output>
				<port id="0" precision="FP32">
					<dim>160</dim>
					<dim>576</dim>
					<dim>1</dim>
					<dim>1</dim>
				</port>
			</output>
		</layer>
		<layer id="219" name="Multiply_61925" type="Convolution" version="opset1">
			<data strides="1, 1" dilations="1, 1" pads_begin="0, 0" pads_end="0, 0" auto_pad="explicit"/>
			<rt_info>
				<attribute name="fused_names" version="0" value="491, 492, backbone.features.stage5.unit1.conv3.bn.bias, backbone.features.stage5.unit1.conv3.bn.running_mean, backbone.features.stage5.unit1.conv3.bn.running_var, backbone.features.stage5.unit1.conv3.bn.weight"/>
			</rt_info>
			<input>
				<port id="0" precision="FP32">
					<dim>1</dim>
					<dim>576</dim>
					<dim>15</dim>
					<dim>27</dim>
				</port>
				<port id="1" precision="FP32">
					<dim>160</dim>
					<dim>576</dim>
					<dim>1</dim>
					<dim>1</dim>
				</port>
			</input>
			<output>
				<port id="2" precision="FP32">
					<dim>1</dim>
					<dim>160</dim>
					<dim>15</dim>
					<dim>27</dim>
				</port>
			</output>
		</layer>
		<layer id="220" name="Constant_61930" type="Const" version="opset1">
			<data element_type="f32" shape="1, 160, 1, 1" offset="2773948" size="640"/>
			<output>
				<port id="0" precision="FP32">
					<dim>1</dim>
					<dim>160</dim>
					<dim>1</dim>
					<dim>1</dim>
				</port>
			</output>
		</layer>
		<layer id="221" name="492" type="Add" version="opset1">
			<data auto_broadcast="numpy"/>
			<rt_info>
				<attribute name="fused_names" version="0" value="492, backbone.features.stage5.unit1.conv3.bn.bias, backbone.features.stage5.unit1.conv3.bn.running_mean, backbone.features.stage5.unit1.conv3.bn.running_var, backbone.features.stage5.unit1.conv3.bn.weight"/>
			</rt_info>
			<input>
				<port id="0" precision="FP32">
					<dim>1</dim>
					<dim>160</dim>
					<dim>15</dim>
					<dim>27</dim>
				</port>
				<port id="1" precision="FP32">
					<dim>1</dim>
					<dim>160</dim>
					<dim>1</dim>
					<dim>1</dim>
				</port>
			</input>
			<output>
				<port id="2" precision="FP32" names="492">
					<dim>1</dim>
					<dim>160</dim>
					<dim>15</dim>
					<dim>27</dim>
				</port>
			</output>
		</layer>
		<layer id="222" name="Multiply_62395" type="Const" version="opset1">
			<data element_type="f32" shape="960, 160, 1, 1" offset="2774588" size="614400"/>
			<output>
				<port id="0" precision="FP32">
					<dim>960</dim>
					<dim>160</dim>
					<dim>1</dim>
					<dim>1</dim>
				</port>
			</output>
		</layer>
		<layer id="223" name="Multiply_61932" type="Convolution" version="opset1">
			<data strides="1, 1" dilations="1, 1" pads_begin="0, 0" pads_end="0, 0" auto_pad="explicit"/>
			<rt_info>
				<attribute name="fused_names" version="0" value="493, 494, backbone.features.stage5.unit2.conv1.bn.bias, backbone.features.stage5.unit2.conv1.bn.running_mean, backbone.features.stage5.unit2.conv1.bn.running_var, backbone.features.stage5.unit2.conv1.bn.weight"/>
			</rt_info>
			<input>
				<port id="0" precision="FP32">
					<dim>1</dim>
					<dim>160</dim>
					<dim>15</dim>
					<dim>27</dim>
				</port>
				<port id="1" precision="FP32">
					<dim>960</dim>
					<dim>160</dim>
					<dim>1</dim>
					<dim>1</dim>
				</port>
			</input>
			<output>
				<port id="2" precision="FP32">
					<dim>1</dim>
					<dim>960</dim>
					<dim>15</dim>
					<dim>27</dim>
				</port>
			</output>
		</layer>
		<layer id="224" name="Constant_61937" type="Const" version="opset1">
			<data element_type="f32" shape="1, 960, 1, 1" offset="3388988" size="3840"/>
			<output>
				<port id="0" precision="FP32">
					<dim>1</dim>
					<dim>960</dim>
					<dim>1</dim>
					<dim>1</dim>
				</port>
			</output>
		</layer>
		<layer id="225" name="494" type="Add" version="opset1">
			<data auto_broadcast="numpy"/>
			<rt_info>
				<attribute name="fused_names" version="0" value="494, backbone.features.stage5.unit2.conv1.bn.bias, backbone.features.stage5.unit2.conv1.bn.running_mean, backbone.features.stage5.unit2.conv1.bn.running_var, backbone.features.stage5.unit2.conv1.bn.weight"/>
			</rt_info>
			<input>
				<port id="0" precision="FP32">
					<dim>1</dim>
					<dim>960</dim>
					<dim>15</dim>
					<dim>27</dim>
				</port>
				<port id="1" precision="FP32">
					<dim>1</dim>
					<dim>960</dim>
					<dim>1</dim>
					<dim>1</dim>
				</port>
			</input>
			<output>
				<port id="2" precision="FP32" names="494">
					<dim>1</dim>
					<dim>960</dim>
					<dim>15</dim>
					<dim>27</dim>
				</port>
			</output>
		</layer>
		<layer id="226" name="495" type="Clamp" version="opset1">
			<data min="0" max="6"/>
			<rt_info>
				<attribute name="fused_names" version="0" value="495"/>
			</rt_info>
			<input>
				<port id="0" precision="FP32">
					<dim>1</dim>
					<dim>960</dim>
					<dim>15</dim>
					<dim>27</dim>
				</port>
			</input>
			<output>
				<port id="1" precision="FP32" names="495">
					<dim>1</dim>
					<dim>960</dim>
					<dim>15</dim>
					<dim>27</dim>
				</port>
			</output>
		</layer>
		<layer id="227" name="Multiply_62404" type="Const" version="opset1">
			<data element_type="f32" shape="960, 1, 1, 3, 3" offset="3392828" size="34560"/>
			<output>
				<port id="0" precision="FP32">
					<dim>960</dim>
					<dim>1</dim>
					<dim>1</dim>
					<dim>3</dim>
					<dim>3</dim>
				</port>
			</output>
		</layer>
		<layer id="228" name="Multiply_61939" type="GroupConvolution" version="opset1">
			<data strides="1, 1" pads_begin="1, 1" pads_end="1, 1" dilations="1, 1" auto_pad="explicit"/>
			<rt_info>
				<attribute name="fused_names" version="0" value="497, backbone.features.stage5.unit2.conv2.bn.bias, backbone.features.stage5.unit2.conv2.bn.running_mean, backbone.features.stage5.unit2.conv2.bn.running_var, backbone.features.stage5.unit2.conv2.bn.weight"/>
			</rt_info>
			<input>
				<port id="0" precision="FP32">
					<dim>1</dim>
					<dim>960</dim>
					<dim>15</dim>
					<dim>27</dim>
				</port>
				<port id="1" precision="FP32">
					<dim>960</dim>
					<dim>1</dim>
					<dim>1</dim>
					<dim>3</dim>
					<dim>3</dim>
				</port>
			</input>
			<output>
				<port id="2" precision="FP32" names="496">
					<dim>1</dim>
					<dim>960</dim>
					<dim>15</dim>
					<dim>27</dim>
				</port>
			</output>
		</layer>
		<layer id="229" name="Constant_61944" type="Const" version="opset1">
			<data element_type="f32" shape="1, 960, 1, 1" offset="3427388" size="3840"/>
			<output>
				<port id="0" precision="FP32">
					<dim>1</dim>
					<dim>960</dim>
					<dim>1</dim>
					<dim>1</dim>
				</port>
			</output>
		</layer>
		<layer id="230" name="497" type="Add" version="opset1">
			<data auto_broadcast="numpy"/>
			<rt_info>
				<attribute name="fused_names" version="0" value="497, backbone.features.stage5.unit2.conv2.bn.bias, backbone.features.stage5.unit2.conv2.bn.running_mean, backbone.features.stage5.unit2.conv2.bn.running_var, backbone.features.stage5.unit2.conv2.bn.weight"/>
			</rt_info>
			<input>
				<port id="0" precision="FP32">
					<dim>1</dim>
					<dim>960</dim>
					<dim>15</dim>
					<dim>27</dim>
				</port>
				<port id="1" precision="FP32">
					<dim>1</dim>
					<dim>960</dim>
					<dim>1</dim>
					<dim>1</dim>
				</port>
			</input>
			<output>
				<port id="2" precision="FP32" names="497">
					<dim>1</dim>
					<dim>960</dim>
					<dim>15</dim>
					<dim>27</dim>
				</port>
			</output>
		</layer>
		<layer id="231" name="498" type="Clamp" version="opset1">
			<data min="0" max="6"/>
			<rt_info>
				<attribute name="fused_names" version="0" value="498"/>
			</rt_info>
			<input>
				<port id="0" precision="FP32">
					<dim>1</dim>
					<dim>960</dim>
					<dim>15</dim>
					<dim>27</dim>
				</port>
			</input>
			<output>
				<port id="1" precision="FP32" names="498">
					<dim>1</dim>
					<dim>960</dim>
					<dim>15</dim>
					<dim>27</dim>
				</port>
			</output>
		</layer>
		<layer id="232" name="Multiply_62412" type="Const" version="opset1">
			<data element_type="f32" shape="160, 960, 1, 1" offset="3431228" size="614400"/>
			<output>
				<port id="0" precision="FP32">
					<dim>160</dim>
					<dim>960</dim>
					<dim>1</dim>
					<dim>1</dim>
				</port>
			</output>
		</layer>
		<layer id="233" name="Multiply_61946" type="Convolution" version="opset1">
			<data strides="1, 1" dilations="1, 1" pads_begin="0, 0" pads_end="0, 0" auto_pad="explicit"/>
			<rt_info>
				<attribute name="fused_names" version="0" value="499, 500, backbone.features.stage5.unit2.conv3.bn.bias, backbone.features.stage5.unit2.conv3.bn.running_mean, backbone.features.stage5.unit2.conv3.bn.running_var, backbone.features.stage5.unit2.conv3.bn.weight"/>
			</rt_info>
			<input>
				<port id="0" precision="FP32">
					<dim>1</dim>
					<dim>960</dim>
					<dim>15</dim>
					<dim>27</dim>
				</port>
				<port id="1" precision="FP32">
					<dim>160</dim>
					<dim>960</dim>
					<dim>1</dim>
					<dim>1</dim>
				</port>
			</input>
			<output>
				<port id="2" precision="FP32">
					<dim>1</dim>
					<dim>160</dim>
					<dim>15</dim>
					<dim>27</dim>
				</port>
			</output>
		</layer>
		<layer id="234" name="Constant_61951" type="Const" version="opset1">
			<data element_type="f32" shape="1, 160, 1, 1" offset="4045628" size="640"/>
			<output>
				<port id="0" precision="FP32">
					<dim>1</dim>
					<dim>160</dim>
					<dim>1</dim>
					<dim>1</dim>
				</port>
			</output>
		</layer>
		<layer id="235" name="500" type="Add" version="opset1">
			<data auto_broadcast="numpy"/>
			<rt_info>
				<attribute name="fused_names" version="0" value="500, backbone.features.stage5.unit2.conv3.bn.bias, backbone.features.stage5.unit2.conv3.bn.running_mean, backbone.features.stage5.unit2.conv3.bn.running_var, backbone.features.stage5.unit2.conv3.bn.weight"/>
			</rt_info>
			<input>
				<port id="0" precision="FP32">
					<dim>1</dim>
					<dim>160</dim>
					<dim>15</dim>
					<dim>27</dim>
				</port>
				<port id="1" precision="FP32">
					<dim>1</dim>
					<dim>160</dim>
					<dim>1</dim>
					<dim>1</dim>
				</port>
			</input>
			<output>
				<port id="2" precision="FP32" names="500">
					<dim>1</dim>
					<dim>160</dim>
					<dim>15</dim>
					<dim>27</dim>
				</port>
			</output>
		</layer>
		<layer id="236" name="501" type="Add" version="opset1">
			<data auto_broadcast="numpy"/>
			<rt_info>
				<attribute name="fused_names" version="0" value="501"/>
			</rt_info>
			<input>
				<port id="0" precision="FP32">
					<dim>1</dim>
					<dim>160</dim>
					<dim>15</dim>
					<dim>27</dim>
				</port>
				<port id="1" precision="FP32">
					<dim>1</dim>
					<dim>160</dim>
					<dim>15</dim>
					<dim>27</dim>
				</port>
			</input>
			<output>
				<port id="2" precision="FP32" names="501">
					<dim>1</dim>
					<dim>160</dim>
					<dim>15</dim>
					<dim>27</dim>
				</port>
			</output>
		</layer>
		<layer id="237" name="Multiply_62421" type="Const" version="opset1">
			<data element_type="f32" shape="960, 160, 1, 1" offset="4046268" size="614400"/>
			<output>
				<port id="0" precision="FP32">
					<dim>960</dim>
					<dim>160</dim>
					<dim>1</dim>
					<dim>1</dim>
				</port>
			</output>
		</layer>
		<layer id="238" name="Multiply_61953" type="Convolution" version="opset1">
			<data strides="1, 1" dilations="1, 1" pads_begin="0, 0" pads_end="0, 0" auto_pad="explicit"/>
			<rt_info>
				<attribute name="fused_names" version="0" value="502, 503, backbone.features.stage5.unit3.conv1.bn.bias, backbone.features.stage5.unit3.conv1.bn.running_mean, backbone.features.stage5.unit3.conv1.bn.running_var, backbone.features.stage5.unit3.conv1.bn.weight"/>
			</rt_info>
			<input>
				<port id="0" precision="FP32">
					<dim>1</dim>
					<dim>160</dim>
					<dim>15</dim>
					<dim>27</dim>
				</port>
				<port id="1" precision="FP32">
					<dim>960</dim>
					<dim>160</dim>
					<dim>1</dim>
					<dim>1</dim>
				</port>
			</input>
			<output>
				<port id="2" precision="FP32">
					<dim>1</dim>
					<dim>960</dim>
					<dim>15</dim>
					<dim>27</dim>
				</port>
			</output>
		</layer>
		<layer id="239" name="Constant_61958" type="Const" version="opset1">
			<data element_type="f32" shape="1, 960, 1, 1" offset="4660668" size="3840"/>
			<output>
				<port id="0" precision="FP32">
					<dim>1</dim>
					<dim>960</dim>
					<dim>1</dim>
					<dim>1</dim>
				</port>
			</output>
		</layer>
		<layer id="240" name="503" type="Add" version="opset1">
			<data auto_broadcast="numpy"/>
			<rt_info>
				<attribute name="fused_names" version="0" value="503, backbone.features.stage5.unit3.conv1.bn.bias, backbone.features.stage5.unit3.conv1.bn.running_mean, backbone.features.stage5.unit3.conv1.bn.running_var, backbone.features.stage5.unit3.conv1.bn.weight"/>
			</rt_info>
			<input>
				<port id="0" precision="FP32">
					<dim>1</dim>
					<dim>960</dim>
					<dim>15</dim>
					<dim>27</dim>
				</port>
				<port id="1" precision="FP32">
					<dim>1</dim>
					<dim>960</dim>
					<dim>1</dim>
					<dim>1</dim>
				</port>
			</input>
			<output>
				<port id="2" precision="FP32" names="503">
					<dim>1</dim>
					<dim>960</dim>
					<dim>15</dim>
					<dim>27</dim>
				</port>
			</output>
		</layer>
		<layer id="241" name="504" type="Clamp" version="opset1">
			<data min="0" max="6"/>
			<rt_info>
				<attribute name="fused_names" version="0" value="504"/>
			</rt_info>
			<input>
				<port id="0" precision="FP32">
					<dim>1</dim>
					<dim>960</dim>
					<dim>15</dim>
					<dim>27</dim>
				</port>
			</input>
			<output>
				<port id="1" precision="FP32" names="504">
					<dim>1</dim>
					<dim>960</dim>
					<dim>15</dim>
					<dim>27</dim>
				</port>
			</output>
		</layer>
		<layer id="242" name="Multiply_62430" type="Const" version="opset1">
			<data element_type="f32" shape="960, 1, 1, 3, 3" offset="4664508" size="34560"/>
			<output>
				<port id="0" precision="FP32">
					<dim>960</dim>
					<dim>1</dim>
					<dim>1</dim>
					<dim>3</dim>
					<dim>3</dim>
				</port>
			</output>
		</layer>
		<layer id="243" name="Multiply_61960" type="GroupConvolution" version="opset1">
			<data strides="1, 1" pads_begin="1, 1" pads_end="1, 1" dilations="1, 1" auto_pad="explicit"/>
			<rt_info>
				<attribute name="fused_names" version="0" value="506, backbone.features.stage5.unit3.conv2.bn.bias, backbone.features.stage5.unit3.conv2.bn.running_mean, backbone.features.stage5.unit3.conv2.bn.running_var, backbone.features.stage5.unit3.conv2.bn.weight"/>
			</rt_info>
			<input>
				<port id="0" precision="FP32">
					<dim>1</dim>
					<dim>960</dim>
					<dim>15</dim>
					<dim>27</dim>
				</port>
				<port id="1" precision="FP32">
					<dim>960</dim>
					<dim>1</dim>
					<dim>1</dim>
					<dim>3</dim>
					<dim>3</dim>
				</port>
			</input>
			<output>
				<port id="2" precision="FP32" names="505">
					<dim>1</dim>
					<dim>960</dim>
					<dim>15</dim>
					<dim>27</dim>
				</port>
			</output>
		</layer>
		<layer id="244" name="Constant_61965" type="Const" version="opset1">
			<data element_type="f32" shape="1, 960, 1, 1" offset="4699068" size="3840"/>
			<output>
				<port id="0" precision="FP32">
					<dim>1</dim>
					<dim>960</dim>
					<dim>1</dim>
					<dim>1</dim>
				</port>
			</output>
		</layer>
		<layer id="245" name="506" type="Add" version="opset1">
			<data auto_broadcast="numpy"/>
			<rt_info>
				<attribute name="fused_names" version="0" value="506, backbone.features.stage5.unit3.conv2.bn.bias, backbone.features.stage5.unit3.conv2.bn.running_mean, backbone.features.stage5.unit3.conv2.bn.running_var, backbone.features.stage5.unit3.conv2.bn.weight"/>
			</rt_info>
			<input>
				<port id="0" precision="FP32">
					<dim>1</dim>
					<dim>960</dim>
					<dim>15</dim>
					<dim>27</dim>
				</port>
				<port id="1" precision="FP32">
					<dim>1</dim>
					<dim>960</dim>
					<dim>1</dim>
					<dim>1</dim>
				</port>
			</input>
			<output>
				<port id="2" precision="FP32" names="506">
					<dim>1</dim>
					<dim>960</dim>
					<dim>15</dim>
					<dim>27</dim>
				</port>
			</output>
		</layer>
		<layer id="246" name="507" type="Clamp" version="opset1">
			<data min="0" max="6"/>
			<rt_info>
				<attribute name="fused_names" version="0" value="507"/>
			</rt_info>
			<input>
				<port id="0" precision="FP32">
					<dim>1</dim>
					<dim>960</dim>
					<dim>15</dim>
					<dim>27</dim>
				</port>
			</input>
			<output>
				<port id="1" precision="FP32" names="507">
					<dim>1</dim>
					<dim>960</dim>
					<dim>15</dim>
					<dim>27</dim>
				</port>
			</output>
		</layer>
		<layer id="247" name="Multiply_62438" type="Const" version="opset1">
			<data element_type="f32" shape="160, 960, 1, 1" offset="4702908" size="614400"/>
			<output>
				<port id="0" precision="FP32">
					<dim>160</dim>
					<dim>960</dim>
					<dim>1</dim>
					<dim>1</dim>
				</port>
			</output>
		</layer>
		<layer id="248" name="Multiply_61967" type="Convolution" version="opset1">
			<data strides="1, 1" dilations="1, 1" pads_begin="0, 0" pads_end="0, 0" auto_pad="explicit"/>
			<rt_info>
				<attribute name="fused_names" version="0" value="508, 509, backbone.features.stage5.unit3.conv3.bn.bias, backbone.features.stage5.unit3.conv3.bn.running_mean, backbone.features.stage5.unit3.conv3.bn.running_var, backbone.features.stage5.unit3.conv3.bn.weight"/>
			</rt_info>
			<input>
				<port id="0" precision="FP32">
					<dim>1</dim>
					<dim>960</dim>
					<dim>15</dim>
					<dim>27</dim>
				</port>
				<port id="1" precision="FP32">
					<dim>160</dim>
					<dim>960</dim>
					<dim>1</dim>
					<dim>1</dim>
				</port>
			</input>
			<output>
				<port id="2" precision="FP32">
					<dim>1</dim>
					<dim>160</dim>
					<dim>15</dim>
					<dim>27</dim>
				</port>
			</output>
		</layer>
		<layer id="249" name="Constant_61972" type="Const" version="opset1">
			<data element_type="f32" shape="1, 160, 1, 1" offset="5317308" size="640"/>
			<output>
				<port id="0" precision="FP32">
					<dim>1</dim>
					<dim>160</dim>
					<dim>1</dim>
					<dim>1</dim>
				</port>
			</output>
		</layer>
		<layer id="250" name="509" type="Add" version="opset1">
			<data auto_broadcast="numpy"/>
			<rt_info>
				<attribute name="fused_names" version="0" value="509, backbone.features.stage5.unit3.conv3.bn.bias, backbone.features.stage5.unit3.conv3.bn.running_mean, backbone.features.stage5.unit3.conv3.bn.running_var, backbone.features.stage5.unit3.conv3.bn.weight"/>
			</rt_info>
			<input>
				<port id="0" precision="FP32">
					<dim>1</dim>
					<dim>160</dim>
					<dim>15</dim>
					<dim>27</dim>
				</port>
				<port id="1" precision="FP32">
					<dim>1</dim>
					<dim>160</dim>
					<dim>1</dim>
					<dim>1</dim>
				</port>
			</input>
			<output>
				<port id="2" precision="FP32" names="509">
					<dim>1</dim>
					<dim>160</dim>
					<dim>15</dim>
					<dim>27</dim>
				</port>
			</output>
		</layer>
		<layer id="251" name="510" type="Add" version="opset1">
			<data auto_broadcast="numpy"/>
			<rt_info>
				<attribute name="fused_names" version="0" value="510"/>
			</rt_info>
			<input>
				<port id="0" precision="FP32">
					<dim>1</dim>
					<dim>160</dim>
					<dim>15</dim>
					<dim>27</dim>
				</port>
				<port id="1" precision="FP32">
					<dim>1</dim>
					<dim>160</dim>
					<dim>15</dim>
					<dim>27</dim>
				</port>
			</input>
			<output>
				<port id="2" precision="FP32" names="510">
					<dim>1</dim>
					<dim>160</dim>
					<dim>15</dim>
					<dim>27</dim>
				</port>
			</output>
		</layer>
		<layer id="252" name="Multiply_62447" type="Const" version="opset1">
			<data element_type="f32" shape="960, 160, 1, 1" offset="5317948" size="614400"/>
			<output>
				<port id="0" precision="FP32">
					<dim>960</dim>
					<dim>160</dim>
					<dim>1</dim>
					<dim>1</dim>
				</port>
			</output>
		</layer>
		<layer id="253" name="Multiply_61974" type="Convolution" version="opset1">
			<data strides="1, 1" dilations="1, 1" pads_begin="0, 0" pads_end="0, 0" auto_pad="explicit"/>
			<rt_info>
				<attribute name="fused_names" version="0" value="511, 512, backbone.features.stage5.unit4.conv1.bn.bias, backbone.features.stage5.unit4.conv1.bn.running_mean, backbone.features.stage5.unit4.conv1.bn.running_var, backbone.features.stage5.unit4.conv1.bn.weight"/>
			</rt_info>
			<input>
				<port id="0" precision="FP32">
					<dim>1</dim>
					<dim>160</dim>
					<dim>15</dim>
					<dim>27</dim>
				</port>
				<port id="1" precision="FP32">
					<dim>960</dim>
					<dim>160</dim>
					<dim>1</dim>
					<dim>1</dim>
				</port>
			</input>
			<output>
				<port id="2" precision="FP32">
					<dim>1</dim>
					<dim>960</dim>
					<dim>15</dim>
					<dim>27</dim>
				</port>
			</output>
		</layer>
		<layer id="254" name="Constant_61979" type="Const" version="opset1">
			<data element_type="f32" shape="1, 960, 1, 1" offset="5932348" size="3840"/>
			<output>
				<port id="0" precision="FP32">
					<dim>1</dim>
					<dim>960</dim>
					<dim>1</dim>
					<dim>1</dim>
				</port>
			</output>
		</layer>
		<layer id="255" name="512" type="Add" version="opset1">
			<data auto_broadcast="numpy"/>
			<rt_info>
				<attribute name="fused_names" version="0" value="512, backbone.features.stage5.unit4.conv1.bn.bias, backbone.features.stage5.unit4.conv1.bn.running_mean, backbone.features.stage5.unit4.conv1.bn.running_var, backbone.features.stage5.unit4.conv1.bn.weight"/>
			</rt_info>
			<input>
				<port id="0" precision="FP32">
					<dim>1</dim>
					<dim>960</dim>
					<dim>15</dim>
					<dim>27</dim>
				</port>
				<port id="1" precision="FP32">
					<dim>1</dim>
					<dim>960</dim>
					<dim>1</dim>
					<dim>1</dim>
				</port>
			</input>
			<output>
				<port id="2" precision="FP32" names="512">
					<dim>1</dim>
					<dim>960</dim>
					<dim>15</dim>
					<dim>27</dim>
				</port>
			</output>
		</layer>
		<layer id="256" name="513" type="Clamp" version="opset1">
			<data min="0" max="6"/>
			<rt_info>
				<attribute name="fused_names" version="0" value="513"/>
			</rt_info>
			<input>
				<port id="0" precision="FP32">
					<dim>1</dim>
					<dim>960</dim>
					<dim>15</dim>
					<dim>27</dim>
				</port>
			</input>
			<output>
				<port id="1" precision="FP32" names="513">
					<dim>1</dim>
					<dim>960</dim>
					<dim>15</dim>
					<dim>27</dim>
				</port>
			</output>
		</layer>
		<layer id="257" name="Multiply_62456" type="Const" version="opset1">
			<data element_type="f32" shape="960, 1, 1, 3, 3" offset="5936188" size="34560"/>
			<output>
				<port id="0" precision="FP32">
					<dim>960</dim>
					<dim>1</dim>
					<dim>1</dim>
					<dim>3</dim>
					<dim>3</dim>
				</port>
			</output>
		</layer>
		<layer id="258" name="Multiply_61981" type="GroupConvolution" version="opset1">
			<data strides="1, 1" pads_begin="1, 1" pads_end="1, 1" dilations="1, 1" auto_pad="explicit"/>
			<rt_info>
				<attribute name="fused_names" version="0" value="515, backbone.features.stage5.unit4.conv2.bn.bias, backbone.features.stage5.unit4.conv2.bn.running_mean, backbone.features.stage5.unit4.conv2.bn.running_var, backbone.features.stage5.unit4.conv2.bn.weight"/>
			</rt_info>
			<input>
				<port id="0" precision="FP32">
					<dim>1</dim>
					<dim>960</dim>
					<dim>15</dim>
					<dim>27</dim>
				</port>
				<port id="1" precision="FP32">
					<dim>960</dim>
					<dim>1</dim>
					<dim>1</dim>
					<dim>3</dim>
					<dim>3</dim>
				</port>
			</input>
			<output>
				<port id="2" precision="FP32" names="514">
					<dim>1</dim>
					<dim>960</dim>
					<dim>15</dim>
					<dim>27</dim>
				</port>
			</output>
		</layer>
		<layer id="259" name="Constant_61986" type="Const" version="opset1">
			<data element_type="f32" shape="1, 960, 1, 1" offset="5970748" size="3840"/>
			<output>
				<port id="0" precision="FP32">
					<dim>1</dim>
					<dim>960</dim>
					<dim>1</dim>
					<dim>1</dim>
				</port>
			</output>
		</layer>
		<layer id="260" name="515" type="Add" version="opset1">
			<data auto_broadcast="numpy"/>
			<rt_info>
				<attribute name="fused_names" version="0" value="515, backbone.features.stage5.unit4.conv2.bn.bias, backbone.features.stage5.unit4.conv2.bn.running_mean, backbone.features.stage5.unit4.conv2.bn.running_var, backbone.features.stage5.unit4.conv2.bn.weight"/>
			</rt_info>
			<input>
				<port id="0" precision="FP32">
					<dim>1</dim>
					<dim>960</dim>
					<dim>15</dim>
					<dim>27</dim>
				</port>
				<port id="1" precision="FP32">
					<dim>1</dim>
					<dim>960</dim>
					<dim>1</dim>
					<dim>1</dim>
				</port>
			</input>
			<output>
				<port id="2" precision="FP32" names="515">
					<dim>1</dim>
					<dim>960</dim>
					<dim>15</dim>
					<dim>27</dim>
				</port>
			</output>
		</layer>
		<layer id="261" name="516" type="Clamp" version="opset1">
			<data min="0" max="6"/>
			<rt_info>
				<attribute name="fused_names" version="0" value="516"/>
			</rt_info>
			<input>
				<port id="0" precision="FP32">
					<dim>1</dim>
					<dim>960</dim>
					<dim>15</dim>
					<dim>27</dim>
				</port>
			</input>
			<output>
				<port id="1" precision="FP32" names="516">
					<dim>1</dim>
					<dim>960</dim>
					<dim>15</dim>
					<dim>27</dim>
				</port>
			</output>
		</layer>
		<layer id="262" name="Multiply_62464" type="Const" version="opset1">
			<data element_type="f32" shape="320, 960, 1, 1" offset="5974588" size="1228800"/>
			<output>
				<port id="0" precision="FP32">
					<dim>320</dim>
					<dim>960</dim>
					<dim>1</dim>
					<dim>1</dim>
				</port>
			</output>
		</layer>
		<layer id="263" name="Multiply_61988" type="Convolution" version="opset1">
			<data strides="1, 1" dilations="1, 1" pads_begin="0, 0" pads_end="0, 0" auto_pad="explicit"/>
			<rt_info>
…
		<edge from-layer="1826" from-port="2" to-layer="1827" to-port="1"/>
		<edge from-layer="1827" from-port="2" to-layer="1829" to-port="0"/>
		<edge from-layer="1828" from-port="0" to-layer="1829" to-port="1"/>
		<edge from-layer="1829" from-port="2" to-layer="1831" to-port="0"/>
		<edge from-layer="1829" from-port="2" to-layer="1838" to-port="0"/>
		<edge from-layer="1830" from-port="0" to-layer="1831" to-port="1"/>
		<edge from-layer="1831" from-port="2" to-layer="1842" to-port="0"/>
		<edge from-layer="1832" from-port="0" to-layer="1834" to-port="1"/>
		<edge from-layer="1833" from-port="0" to-layer="1834" to-port="2"/>
		<edge from-layer="1834" from-port="3" to-layer="1835" to-port="0"/>
		<edge from-layer="1835" from-port="1" to-layer="1837" to-port="0"/>
		<edge from-layer="1836" from-port="0" to-layer="1837" to-port="1"/>
		<edge from-layer="1837" from-port="2" to-layer="1839" to-port="0"/>
		<edge from-layer="1838" from-port="1" to-layer="1839" to-port="1"/>
		<edge from-layer="1839" from-port="2" to-layer="1841" to-port="0"/>
		<edge from-layer="1840" from-port="0" to-layer="1841" to-port="1"/>
		<edge from-layer="1841" from-port="2" to-layer="1842" to-port="1"/>
		<edge from-layer="1842" from-port="2" to-layer="1844" to-port="0"/>
		<edge from-layer="1843" from-port="0" to-layer="1844" to-port="1"/>
		<edge from-layer="1844" from-port="2" to-layer="1846" to-port="0"/>
		<edge from-layer="1845" from-port="0" to-layer="1846" to-port="1"/>
		<edge from-layer="1846" from-port="2" to-layer="1907" to-port="1"/>
		<edge from-layer="1847" from-port="0" to-layer="1848" to-port="1"/>
		<edge from-layer="1848" from-port="2" to-layer="1849" to-port="1"/>
		<edge from-layer="1849" from-port="2" to-layer="1851" to-port="0"/>
		<edge from-layer="1849" from-port="2" to-layer="1853" to-port="0"/>
		<edge from-layer="1850" from-port="0" to-layer="1851" to-port="1"/>
		<edge from-layer="1851" from-port="2" to-layer="1857" to-port="0"/>
		<edge from-layer="1852" from-port="0" to-layer="1854" to-port="0"/>
		<edge from-layer="1853" from-port="1" to-layer="1854" to-port="1"/>
		<edge from-layer="1854" from-port="2" to-layer="1856" to-port="0"/>
		<edge from-layer="1855" from-port="0" to-layer="1856" to-port="1"/>
		<edge from-layer="1856" from-port="2" to-layer="1857" to-port="1"/>
		<edge from-layer="1857" from-port="2" to-layer="1859" to-port="0"/>
		<edge from-layer="1858" from-port="0" to-layer="1859" to-port="1"/>
		<edge from-layer="1859" from-port="2" to-layer="1861" to-port="0"/>
		<edge from-layer="1859" from-port="2" to-layer="1868" to-port="0"/>
		<edge from-layer="1860" from-port="0" to-layer="1861" to-port="1"/>
		<edge from-layer="1861" from-port="2" to-layer="1872" to-port="0"/>
		<edge from-layer="1862" from-port="0" to-layer="1864" to-port="1"/>
		<edge from-layer="1863" from-port="0" to-layer="1864" to-port="2"/>
		<edge from-layer="1864" from-port="3" to-layer="1865" to-port="0"/>
		<edge from-layer="1865" from-port="1" to-layer="1867" to-port="0"/>
		<edge from-layer="1866" from-port="0" to-layer="1867" to-port="1"/>
		<edge from-layer="1867" from-port="2" to-layer="1869" to-port="0"/>
		<edge from-layer="1868" from-port="1" to-layer="1869" to-port="1"/>
		<edge from-layer="1869" from-port="2" to-layer="1871" to-port="0"/>
		<edge from-layer="1870" from-port="0" to-layer="1871" to-port="1"/>
		<edge from-layer="1871" from-port="2" to-layer="1872" to-port="1"/>
		<edge from-layer="1872" from-port="2" to-layer="1874" to-port="0"/>
		<edge from-layer="1873" from-port="0" to-layer="1874" to-port="1"/>
		<edge from-layer="1874" from-port="2" to-layer="1876" to-port="0"/>
		<edge from-layer="1875" from-port="0" to-layer="1876" to-port="1"/>
		<edge from-layer="1876" from-port="2" to-layer="1907" to-port="2"/>
		<edge from-layer="1877" from-port="0" to-layer="1878" to-port="1"/>
		<edge from-layer="1878" from-port="2" to-layer="1879" to-port="1"/>
		<edge from-layer="1879" from-port="2" to-layer="1881" to-port="0"/>
		<edge from-layer="1879" from-port="2" to-layer="1883" to-port="0"/>
		<edge from-layer="1880" from-port="0" to-layer="1881" to-port="1"/>
		<edge from-layer="1881" from-port="2" to-layer="1887" to-port="0"/>
		<edge from-layer="1882" from-port="0" to-layer="1884" to-port="0"/>
		<edge from-layer="1883" from-port="1" to-layer="1884" to-port="1"/>
		<edge from-layer="1884" from-port="2" to-layer="1886" to-port="0"/>
		<edge from-layer="1885" from-port="0" to-layer="1886" to-port="1"/>
		<edge from-layer="1886" from-port="2" to-layer="1887" to-port="1"/>
		<edge from-layer="1887" from-port="2" to-layer="1889" to-port="0"/>
		<edge from-layer="1888" from-port="0" to-layer="1889" to-port="1"/>
		<edge from-layer="1889" from-port="2" to-layer="1891" to-port="0"/>
		<edge from-layer="1889" from-port="2" to-layer="1898" to-port="0"/>
		<edge from-layer="1890" from-port="0" to-layer="1891" to-port="1"/>
		<edge from-layer="1891" from-port="2" to-layer="1902" to-port="0"/>
		<edge from-layer="1892" from-port="0" to-layer="1894" to-port="1"/>
		<edge from-layer="1893" from-port="0" to-layer="1894" to-port="2"/>
		<edge from-layer="1894" from-port="3" to-layer="1895" to-port="0"/>
		<edge from-layer="1895" from-port="1" to-layer="1897" to-port="0"/>
		<edge from-layer="1896" from-port="0" to-layer="1897" to-port="1"/>
		<edge from-layer="1897" from-port="2" to-layer="1899" to-port="0"/>
		<edge from-layer="1898" from-port="1" to-layer="1899" to-port="1"/>
		<edge from-layer="1899" from-port="2" to-layer="1901" to-port="0"/>
		<edge from-layer="1900" from-port="0" to-layer="1901" to-port="1"/>
		<edge from-layer="1901" from-port="2" to-layer="1902" to-port="1"/>
		<edge from-layer="1902" from-port="2" to-layer="1904" to-port="0"/>
		<edge from-layer="1903" from-port="0" to-layer="1904" to-port="1"/>
		<edge from-layer="1904" from-port="2" to-layer="1906" to-port="0"/>
		<edge from-layer="1905" from-port="0" to-layer="1906" to-port="1"/>
		<edge from-layer="1906" from-port="2" to-layer="1907" to-port="3"/>
		<edge from-layer="1907" from-port="4" to-layer="1908" to-port="0"/>
		<edge from-layer="1908" from-port="2" to-layer="2306" to-port="3"/>
		<edge from-layer="1909" from-port="0" to-layer="1997" to-port="0"/>
		<edge from-layer="1910" from-port="0" to-layer="1954" to-port="0"/>
		<edge from-layer="1911" from-port="0" to-layer="1912" to-port="1"/>
		<edge from-layer="1912" from-port="2" to-layer="1914" to-port="0"/>
		<edge from-layer="1913" from-port="0" to-layer="1914" to-port="1"/>
		<edge from-layer="1914" from-port="2" to-layer="2008" to-port="0"/>
		<edge from-layer="1914" from-port="2" to-layer="1915" to-port="0"/>
		<edge from-layer="1915" from-port="2" to-layer="1917" to-port="0"/>
		<edge from-layer="1916" from-port="0" to-layer="1917" to-port="1"/>
		<edge from-layer="1917" from-port="2" to-layer="1919" to-port="0"/>
		<edge from-layer="1918" from-port="0" to-layer="1919" to-port="1"/>
		<edge from-layer="1919" from-port="2" to-layer="1921" to-port="0"/>
		<edge from-layer="1920" from-port="0" to-layer="1921" to-port="1"/>
		<edge from-layer="1921" from-port="2" to-layer="1922" to-port="0"/>
		<edge from-layer="1922" from-port="1" to-layer="1923" to-port="0"/>
		<edge from-layer="1923" from-port="2" to-layer="1925" to-port="0"/>
		<edge from-layer="1924" from-port="0" to-layer="1925" to-port="1"/>
		<edge from-layer="1925" from-port="2" to-layer="1927" to-port="0"/>
		<edge from-layer="1926" from-port="0" to-layer="1927" to-port="1"/>
		<edge from-layer="1927" from-port="2" to-layer="1929" to-port="0"/>
		<edge from-layer="1928" from-port="0" to-layer="1929" to-port="1"/>
		<edge from-layer="1929" from-port="2" to-layer="1930" to-port="0"/>
		<edge from-layer="1930" from-port="1" to-layer="1931" to-port="0"/>
		<edge from-layer="1931" from-port="2" to-layer="1933" to-port="0"/>
		<edge from-layer="1932" from-port="0" to-layer="1933" to-port="1"/>
		<edge from-layer="1933" from-port="2" to-layer="1935" to-port="0"/>
		<edge from-layer="1934" from-port="0" to-layer="1935" to-port="1"/>
		<edge from-layer="1935" from-port="2" to-layer="1937" to-port="0"/>
		<edge from-layer="1936" from-port="0" to-layer="1937" to-port="1"/>
		<edge from-layer="1937" from-port="2" to-layer="1938" to-port="0"/>
		<edge from-layer="1938" from-port="1" to-layer="1939" to-port="0"/>
		<edge from-layer="1939" from-port="2" to-layer="1941" to-port="0"/>
		<edge from-layer="1940" from-port="0" to-layer="1941" to-port="1"/>
		<edge from-layer="1941" from-port="2" to-layer="1943" to-port="0"/>
		<edge from-layer="1942" from-port="0" to-layer="1943" to-port="1"/>
		<edge from-layer="1943" from-port="2" to-layer="1945" to-port="0"/>
		<edge from-layer="1944" from-port="0" to-layer="1945" to-port="1"/>
		<edge from-layer="1945" from-port="2" to-layer="1946" to-port="0"/>
		<edge from-layer="1946" from-port="1" to-layer="1947" to-port="0"/>
		<edge from-layer="1947" from-port="2" to-layer="1949" to-port="0"/>
		<edge from-layer="1948" from-port="0" to-layer="1949" to-port="1"/>
		<edge from-layer="1949" from-port="2" to-layer="2002" to-port="0"/>
		<edge from-layer="1949" from-port="2" to-layer="1950" to-port="0"/>
		<edge from-layer="1950" from-port="1" to-layer="1969" to-port="0"/>
		<edge from-layer="1950" from-port="1" to-layer="1953" to-port="0"/>
		<edge from-layer="1951" from-port="0" to-layer="1953" to-port="1"/>
		<edge from-layer="1952" from-port="0" to-layer="1953" to-port="2"/>
		<edge from-layer="1953" from-port="3" to-layer="1954" to-port="1"/>
		<edge from-layer="1954" from-port="2" to-layer="1955" to-port="0"/>
		<edge from-layer="1955" from-port="1" to-layer="1957" to-port="0"/>
		<edge from-layer="1956" from-port="0" to-layer="1957" to-port="1"/>
		<edge from-layer="1957" from-port="2" to-layer="1959" to-port="0"/>
		<edge from-layer="1958" from-port="0" to-layer="1959" to-port="1"/>
		<edge from-layer="1959" from-port="2" to-layer="1961" to-port="0"/>
		<edge from-layer="1960" from-port="0" to-layer="1961" to-port="1"/>
		<edge from-layer="1961" from-port="2" to-layer="1963" to-port="0"/>
		<edge from-layer="1961" from-port="2" to-layer="1965" to-port="0"/>
		<edge from-layer="1962" from-port="0" to-layer="1964" to-port="0"/>
		<edge from-layer="1963" from-port="1" to-layer="1979" to-port="1"/>
		<edge from-layer="1963" from-port="1" to-layer="1964" to-port="1"/>
		<edge from-layer="1964" from-port="2" to-layer="1965" to-port="1"/>
		<edge from-layer="1965" from-port="2" to-layer="1980" to-port="0"/>
		<edge from-layer="1966" from-port="0" to-layer="1970" to-port="0"/>
		<edge from-layer="1967" from-port="0" to-layer="1969" to-port="1"/>
		<edge from-layer="1968" from-port="0" to-layer="1969" to-port="2"/>
		<edge from-layer="1969" from-port="3" to-layer="1970" to-port="1"/>
		<edge from-layer="1970" from-port="2" to-layer="1971" to-port="0"/>
		<edge from-layer="1971" from-port="1" to-layer="1973" to-port="0"/>
		<edge from-layer="1972" from-port="0" to-layer="1973" to-port="1"/>
		<edge from-layer="1973" from-port="2" to-layer="1975" to-port="0"/>
		<edge from-layer="1974" from-port="0" to-layer="1975" to-port="1"/>
		<edge from-layer="1975" from-port="2" to-layer="1977" to-port="0"/>
		<edge from-layer="1976" from-port="0" to-layer="1977" to-port="1"/>
		<edge from-layer="1977" from-port="2" to-layer="1978" to-port="0"/>
		<edge from-layer="1977" from-port="2" to-layer="1985" to-port="0"/>
		<edge from-layer="1978" from-port="1" to-layer="1979" to-port="0"/>
		<edge from-layer="1978" from-port="1" to-layer="1984" to-port="0"/>
		<edge from-layer="1979" from-port="2" to-layer="1980" to-port="1"/>
		<edge from-layer="1979" from-port="2" to-layer="1986" to-port="1"/>
		<edge from-layer="1980" from-port="2" to-layer="1990" to-port="0"/>
		<edge from-layer="1980" from-port="2" to-layer="1982" to-port="0"/>
		<edge from-layer="1981" from-port="0" to-layer="1982" to-port="1"/>
		<edge from-layer="1982" from-port="2" to-layer="1993" to-port="0"/>
		<edge from-layer="1983" from-port="0" to-layer="1984" to-port="1"/>
		<edge from-layer="1984" from-port="2" to-layer="1985" to-port="1"/>
		<edge from-layer="1985" from-port="2" to-layer="1986" to-port="0"/>
		<edge from-layer="1986" from-port="2" to-layer="1988" to-port="0"/>
		<edge from-layer="1986" from-port="2" to-layer="1992" to-port="0"/>
		<edge from-layer="1987" from-port="0" to-layer="1988" to-port="1"/>
		<edge from-layer="1988" from-port="2" to-layer="1993" to-port="1"/>
		<edge from-layer="1989" from-port="0" to-layer="1990" to-port="1"/>
		<edge from-layer="1990" from-port="2" to-layer="1993" to-port="2"/>
		<edge from-layer="1991" from-port="0" to-layer="1992" to-port="1"/>
		<edge from-layer="1992" from-port="2" to-layer="1993" to-port="3"/>
		<edge from-layer="1993" from-port="4" to-layer="1995" to-port="0"/>
		<edge from-layer="1994" from-port="0" to-layer="1995" to-port="1"/>
		<edge from-layer="1995" from-port="2" to-layer="1996" to-port="0"/>
		<edge from-layer="1996" from-port="1" to-layer="1997" to-port="1"/>
		<edge from-layer="1997" from-port="2" to-layer="1999" to-port="0"/>
		<edge from-layer="1998" from-port="0" to-layer="1999" to-port="1"/>
		<edge from-layer="1999" from-port="2" to-layer="2071" to-port="0"/>
		<edge from-layer="2000" from-port="0" to-layer="2002" to-port="1"/>
		<edge from-layer="2001" from-port="0" to-layer="2002" to-port="2"/>
		<edge from-layer="2002" from-port="3" to-layer="2004" to-port="0"/>
		<edge from-layer="2003" from-port="0" to-layer="2004" to-port="1"/>
		<edge from-layer="2004" from-port="2" to-layer="2006" to-port="0"/>
		<edge from-layer="2005" from-port="0" to-layer="2006" to-port="1"/>
		<edge from-layer="2006" from-port="2" to-layer="2007" to-port="0"/>
		<edge from-layer="2007" from-port="1" to-layer="2053" to-port="0"/>
		<edge from-layer="2007" from-port="1" to-layer="2318" to-port="0"/>
		<edge from-layer="2008" from-port="2" to-layer="2010" to-port="0"/>
		<edge from-layer="2009" from-port="0" to-layer="2010" to-port="1"/>
		<edge from-layer="2010" from-port="2" to-layer="2012" to-port="0"/>
		<edge from-layer="2011" from-port="0" to-layer="2012" to-port="1"/>
		<edge from-layer="2012" from-port="2" to-layer="2014" to-port="0"/>
		<edge from-layer="2013" from-port="0" to-layer="2014" to-port="1"/>
		<edge from-layer="2014" from-port="2" to-layer="2015" to-port="0"/>
		<edge from-layer="2015" from-port="1" to-layer="2016" to-port="0"/>
		<edge from-layer="2016" from-port="2" to-layer="2018" to-port="0"/>
		<edge from-layer="2017" from-port="0" to-layer="2018" to-port="1"/>
		<edge from-layer="2018" from-port="2" to-layer="2020" to-port="0"/>
		<edge from-layer="2019" from-port="0" to-layer="2020" to-port="1"/>
		<edge from-layer="2020" from-port="2" to-layer="2022" to-port="0"/>
		<edge from-layer="2021" from-port="0" to-layer="2022" to-port="1"/>
		<edge from-layer="2022" from-port="2" to-layer="2023" to-port="0"/>
		<edge from-layer="2023" from-port="1" to-layer="2024" to-port="0"/>
		<edge from-layer="2024" from-port="2" to-layer="2026" to-port="0"/>
		<edge from-layer="2025" from-port="0" to-layer="2026" to-port="1"/>
		<edge from-layer="2026" from-port="2" to-layer="2028" to-port="0"/>
		<edge from-layer="2027" from-port="0" to-layer="2028" to-port="1"/>
		<edge from-layer="2028" from-port="2" to-layer="2030" to-port="0"/>
		<edge from-layer="2029" from-port="0" to-layer="2030" to-port="1"/>
		<edge from-layer="2030" from-port="2" to-layer="2031" to-port="0"/>
		<edge from-layer="2031" from-port="1" to-layer="2032" to-port="0"/>
		<edge from-layer="2032" from-port="2" to-layer="2034" to-port="0"/>
		<edge from-layer="2033" from-port="0" to-layer="2034" to-port="1"/>
		<edge from-layer="2034" from-port="2" to-layer="2036" to-port="0"/>
		<edge from-layer="2035" from-port="0" to-layer="2036" to-port="1"/>
		<edge from-layer="2036" from-port="2" to-layer="2038" to-port="0"/>
		<edge from-layer="2037" from-port="0" to-layer="2038" to-port="1"/>
		<edge from-layer="2038" from-port="2" to-layer="2039" to-port="0"/>
		<edge from-layer="2039" from-port="1" to-layer="2040" to-port="0"/>
		<edge from-layer="2039" from-port="1" to-layer="2084" to-port="0"/>
		<edge from-layer="2040" from-port="2" to-layer="2042" to-port="0"/>
		<edge from-layer="2041" from-port="0" to-layer="2042" to-port="1"/>
		<edge from-layer="2042" from-port="2" to-layer="2045" to-port="0"/>
		<edge from-layer="2043" from-port="0" to-layer="2045" to-port="1"/>
		<edge from-layer="2044" from-port="0" to-layer="2045" to-port="2"/>
		<edge from-layer="2045" from-port="3" to-layer="2047" to-port="0"/>
		<edge from-layer="2046" from-port="0" to-layer="2047" to-port="1"/>
		<edge from-layer="2047" from-port="2" to-layer="2049" to-port="0"/>
		<edge from-layer="2048" from-port="0" to-layer="2049" to-port="1"/>
		<edge from-layer="2049" from-port="2" to-layer="2050" to-port="0"/>
		<edge from-layer="2050" from-port="1" to-layer="2329" to-port="0"/>
		<edge from-layer="2050" from-port="1" to-layer="2052" to-port="0"/>
		<edge from-layer="2051" from-port="0" to-layer="2052" to-port="1"/>
		<edge from-layer="2052" from-port="2" to-layer="2053" to-port="1"/>
		<edge from-layer="2053" from-port="2" to-layer="2055" to-port="0"/>
		<edge from-layer="2054" from-port="0" to-layer="2055" to-port="1"/>
		<edge from-layer="2055" from-port="2" to-layer="2057" to-port="0"/>
		<edge from-layer="2055" from-port="2" to-layer="2069" to-port="0"/>
		<edge from-layer="2056" from-port="0" to-layer="2058" to-port="0"/>
		<edge from-layer="2057" from-port="1" to-layer="2058" to-port="1"/>
		<edge from-layer="2058" from-port="2" to-layer="2059" to-port="0"/>
		<edge from-layer="2059" from-port="1" to-layer="2061" to-port="0"/>
		<edge from-layer="2060" from-port="0" to-layer="2061" to-port="1"/>
		<edge from-layer="2061" from-port="2" to-layer="2062" to-port="0"/>
		<edge from-layer="2062" from-port="1" to-layer="2064" to-port="0"/>
		<edge from-layer="2063" from-port="0" to-layer="2064" to-port="1"/>
		<edge from-layer="2064" from-port="2" to-layer="2066" to-port="0"/>
		<edge from-layer="2065" from-port="0" to-layer="2066" to-port="1"/>
		<edge from-layer="2066" from-port="2" to-layer="2068" to-port="0"/>
		<edge from-layer="2067" from-port="0" to-layer="2068" to-port="1"/>
		<edge from-layer="2068" from-port="2" to-layer="2069" to-port="1"/>
		<edge from-layer="2069" from-port="3" to-layer="2095" to-port="1"/>
		<edge from-layer="2069" from-port="3" to-layer="2318" to-port="1"/>
		<edge from-layer="2069" from-port="3" to-layer="2071" to-port="1"/>
		<edge from-layer="2069" from-port="3" to-layer="2329" to-port="1"/>
		<edge from-layer="2070" from-port="0" to-layer="2071" to-port="2"/>
		<edge from-layer="2071" from-port="3" to-layer="2129" to-port="0"/>
		<edge from-layer="2071" from-port="3" to-layer="2182" to-port="0"/>
		<edge from-layer="2071" from-port="3" to-layer="2179" to-port="0"/>
		<edge from-layer="2071" from-port="3" to-layer="2132" to-port="0"/>
		<edge from-layer="2071" from-port="3" to-layer="2196" to-port="0"/>
		<edge from-layer="2071" from-port="3" to-layer="2199" to-port="0"/>
		<edge from-layer="2071" from-port="3" to-layer="2074" to-port="0"/>
		<edge from-layer="2071" from-port="3" to-layer="2077" to-port="0"/>
		<edge from-layer="2072" from-port="0" to-layer="2074" to-port="1"/>
		<edge from-layer="2073" from-port="0" to-layer="2074" to-port="2"/>
		<edge from-layer="2074" from-port="3" to-layer="2078" to-port="0"/>
		<edge from-layer="2075" from-port="0" to-layer="2077" to-port="1"/>
		<edge from-layer="2076" from-port="0" to-layer="2077" to-port="2"/>
		<edge from-layer="2077" from-port="3" to-layer="2078" to-port="1"/>
		<edge from-layer="2078" from-port="2" to-layer="2080" to-port="0"/>
		<edge from-layer="2079" from-port="0" to-layer="2080" to-port="1"/>
		<edge from-layer="2080" from-port="2" to-layer="2082" to-port="0"/>
		<edge from-layer="2081" from-port="0" to-layer="2082" to-port="1"/>
		<edge from-layer="2082" from-port="2" to-layer="2126" to-port="0"/>
		<edge from-layer="2083" from-port="0" to-layer="2084" to-port="1"/>
		<edge from-layer="2084" from-port="2" to-layer="2086" to-port="0"/>
		<edge from-layer="2085" from-port="0" to-layer="2086" to-port="1"/>
		<edge from-layer="2086" from-port="2" to-layer="2089" to-port="0"/>
		<edge from-layer="2087" from-port="0" to-layer="2089" to-port="1"/>
		<edge from-layer="2088" from-port="0" to-layer="2089" to-port="2"/>
		<edge from-layer="2089" from-port="3" to-layer="2091" to-port="0"/>
		<edge from-layer="2090" from-port="0" to-layer="2091" to-port="1"/>
		<edge from-layer="2091" from-port="2" to-layer="2093" to-port="0"/>
		<edge from-layer="2092" from-port="0" to-layer="2093" to-port="1"/>
		<edge from-layer="2093" from-port="2" to-layer="2095" to-port="0"/>
		<edge from-layer="2094" from-port="0" to-layer="2095" to-port="2"/>
		<edge from-layer="2095" from-port="3" to-layer="2098" to-port="0"/>
		<edge from-layer="2095" from-port="3" to-layer="2108" to-port="0"/>
		<edge from-layer="2096" from-port="0" to-layer="2107" to-port="0"/>
		<edge from-layer="2097" from-port="0" to-layer="2106" to-port="0"/>
		<edge from-layer="2098" from-port="1" to-layer="2101" to-port="0"/>
		<edge from-layer="2098" from-port="1" to-layer="2113" to-port="0"/>
		<edge from-layer="2098" from-port="1" to-layer="2305" to-port="1"/>
		<edge from-layer="2099" from-port="0" to-layer="2101" to-port="1"/>
		<edge from-layer="2100" from-port="0" to-layer="2101" to-port="2"/>
		<edge from-layer="2101" from-port="3" to-layer="2103" to-port="0"/>
		<edge from-layer="2102" from-port="0" to-layer="2103" to-port="1"/>
		<edge from-layer="2103" from-port="2" to-layer="2105" to-port="0"/>
		<edge from-layer="2104" from-port="0" to-layer="2105" to-port="1"/>
		<edge from-layer="2105" from-port="2" to-layer="2106" to-port="1"/>
		<edge from-layer="2106" from-port="2" to-layer="2107" to-port="1"/>
		<edge from-layer="2107" from-port="2" to-layer="2108" to-port="1"/>
		<edge from-layer="2108" from-port="2" to-layer="2120" to-port="0"/>
		<edge from-layer="2109" from-port="0" to-layer="2119" to-port="0"/>
		<edge from-layer="2110" from-port="0" to-layer="2118" to-port="0"/>
		<edge from-layer="2111" from-port="0" to-layer="2113" to-port="1"/>
		<edge from-layer="2112" from-port="0" to-layer="2113" to-port="2"/>
		<edge from-layer="2113" from-port="3" to-layer="2115" to-port="0"/>
		<edge from-layer="2114" from-port="0" to-layer="2115" to-port="1"/>
		<edge from-layer="2115" from-port="2" to-layer="2117" to-port="0"/>
		<edge from-layer="2116" from-port="0" to-layer="2117" to-port="1"/>
		<edge from-layer="2117" from-port="2" to-layer="2118" to-port="1"/>
		<edge from-layer="2118" from-port="2" to-layer="2119" to-port="1"/>
		<edge from-layer="2119" from-port="2" to-layer="2120" to-port="1"/>
		<edge from-layer="2120" from-port="2" to-layer="2139" to-port="0"/>
		<edge from-layer="2120" from-port="2" to-layer="2191" to-port="0"/>
		<edge from-layer="2120" from-port="2" to-layer="2206" to-port="0"/>
		<edge from-layer="2120" from-port="2" to-layer="2124" to-port="0"/>
		<edge from-layer="2121" from-port="0" to-layer="2124" to-port="1"/>
		<edge from-layer="2122" from-port="0" to-layer="2124" to-port="2"/>
		<edge from-layer="2123" from-port="0" to-layer="2124" to-port="3"/>
		<edge from-layer="2124" from-port="4" to-layer="2125" to-port="0"/>
		<edge from-layer="2124" from-port="4" to-layer="2143" to-port="1"/>
		<edge from-layer="2125" from-port="1" to-layer="2126" to-port="1"/>
		<edge from-layer="2126" from-port="2" to-layer="2144" to-port="0"/>
		<edge from-layer="2127" from-port="0" to-layer="2129" to-port="1"/>
		<edge from-layer="2128" from-port="0" to-layer="2129" to-port="2"/>
		<edge from-layer="2129" from-port="3" to-layer="2133" to-port="0"/>
		<edge from-layer="2130" from-port="0" to-layer="2132" to-port="1"/>
		<edge from-layer="2131" from-port="0" to-layer="2132" to-port="2"/>
		<edge from-layer="2132" from-port="3" to-layer="2133" to-port="1"/>
		<edge from-layer="2133" from-port="2" to-layer="2135" to-port="0"/>
		<edge from-layer="2134" from-port="0" to-layer="2135" to-port="1"/>
		<edge from-layer="2135" from-port="2" to-layer="2142" to-port="0"/>
		<edge from-layer="2136" from-port="0" to-layer="2139" to-port="1"/>
		<edge from-layer="2137" from-port="0" to-layer="2139" to-port="2"/>
		<edge from-layer="2138" from-port="0" to-layer="2139" to-port="3"/>
		<edge from-layer="2139" from-port="4" to-layer="2140" to-port="0"/>
		<edge from-layer="2140" from-port="1" to-layer="2145" to-port="0"/>
		<edge from-layer="2140" from-port="1" to-layer="2141" to-port="0"/>
		<edge from-layer="2141" from-port="1" to-layer="2142" to-port="1"/>
		<edge from-layer="2142" from-port="2" to-layer="2143" to-port="0"/>
		<edge from-layer="2142" from-port="2" to-layer="2146" to-port="0"/>
		<edge from-layer="2143" from-port="2" to-layer="2144" to-port="1"/>
		<edge from-layer="2144" from-port="2" to-layer="2246" to-port="0"/>
		<edge from-layer="2144" from-port="2" to-layer="2149" to-port="0"/>
		<edge from-layer="2145" from-port="1" to-layer="2146" to-port="1"/>
		<edge from-layer="2146" from-port="2" to-layer="2245" to-port="0"/>
		<edge from-layer="2146" from-port="2" to-layer="2148" to-port="0"/>
		<edge from-layer="2147" from-port="0" to-layer="2148" to-port="1"/>
		<edge from-layer="2148" from-port="2" to-layer="2149" to-port="1"/>
		<edge from-layer="2149" from-port="2" to-layer="2151" to-port="0"/>
		<edge from-layer="2149" from-port="2" to-layer="2153" to-port="0"/>
		<edge from-layer="2150" from-port="0" to-layer="2151" to-port="1"/>
		<edge from-layer="2151" from-port="2" to-layer="2157" to-port="0"/>
		<edge from-layer="2152" from-port="0" to-layer="2154" to-port="0"/>
		<edge from-layer="2153" from-port="1" to-layer="2154" to-port="1"/>
		<edge from-layer="2154" from-port="2" to-layer="2156" to-port="0"/>
		<edge from-layer="2155" from-port="0" to-layer="2156" to-port="1"/>
		<edge from-layer="2156" from-port="2" to-layer="2157" to-port="1"/>
		<edge from-layer="2157" from-port="2" to-layer="2159" to-port="0"/>
		<edge from-layer="2158" from-port="0" to-layer="2159" to-port="1"/>
		<edge from-layer="2159" from-port="2" to-layer="2168" to-port="0"/>
		<edge from-layer="2159" from-port="2" to-layer="2161" to-port="0"/>
		<edge from-layer="2160" from-port="0" to-layer="2161" to-port="1"/>
		<edge from-layer="2161" from-port="2" to-layer="2172" to-port="0"/>
		<edge from-layer="2162" from-port="0" to-layer="2164" to-port="1"/>
		<edge from-layer="2163" from-port="0" to-layer="2164" to-port="2"/>
		<edge from-layer="2164" from-port="3" to-layer="2165" to-port="0"/>
		<edge from-layer="2165" from-port="1" to-layer="2167" to-port="0"/>
		<edge from-layer="2166" from-port="0" to-layer="2167" to-port="1"/>
		<edge from-layer="2167" from-port="2" to-layer="2169" to-port="0"/>
		<edge from-layer="2168" from-port="1" to-layer="2169" to-port="1"/>
		<edge from-layer="2169" from-port="2" to-layer="2171" to-port="0"/>
		<edge from-layer="2170" from-port="0" to-layer="2171" to-port="1"/>
		<edge from-layer="2171" from-port="2" to-layer="2172" to-port="1"/>
		<edge from-layer="2172" from-port="2" to-layer="2174" to-port="0"/>
		<edge from-layer="2173" from-port="0" to-layer="2174" to-port="1"/>
		<edge from-layer="2174" from-port="2" to-layer="2176" to-port="0"/>
		<edge from-layer="2175" from-port="0" to-layer="2176" to-port="1"/>
		<edge from-layer="2176" from-port="2" to-layer="2304" to-port="0"/>
		<edge from-layer="2177" from-port="0" to-layer="2179" to-port="1"/>
		<edge from-layer="2178" from-port="0" to-layer="2179" to-port="2"/>
		<edge from-layer="2179" from-port="3" to-layer="2183" to-port="0"/>
		<edge from-layer="2180" from-port="0" to-layer="2182" to-port="1"/>
		<edge from-layer="2181" from-port="0" to-layer="2182" to-port="2"/>
		<edge from-layer="2182" from-port="3" to-layer="2183" to-port="1"/>
		<edge from-layer="2183" from-port="2" to-layer="2185" to-port="0"/>
		<edge from-layer="2184" from-port="0" to-layer="2185" to-port="1"/>
		<edge from-layer="2185" from-port="2" to-layer="2187" to-port="0"/>
		<edge from-layer="2186" from-port="0" to-layer="2187" to-port="1"/>
		<edge from-layer="2187" from-port="2" to-layer="2193" to-port="0"/>
		<edge from-layer="2188" from-port="0" to-layer="2191" to-port="1"/>
		<edge from-layer="2189" from-port="0" to-layer="2191" to-port="2"/>
		<edge from-layer="2190" from-port="0" to-layer="2191" to-port="3"/>
		<edge from-layer="2191" from-port="4" to-layer="2210" to-port="1"/>
		<edge from-layer="2191" from-port="4" to-layer="2192" to-port="0"/>
		<edge from-layer="2192" from-port="1" to-layer="2193" to-port="1"/>
		<edge from-layer="2193" from-port="2" to-layer="2211" to-port="0"/>
		<edge from-layer="2194" from-port="0" to-layer="2196" to-port="1"/>
		<edge from-layer="2195" from-port="0" to-layer="2196" to-port="2"/>
		<edge from-layer="2196" from-port="3" to-layer="2200" to-port="0"/>
		<edge from-layer="2197" from-port="0" to-layer="2199" to-port="1"/>
		<edge from-layer="2198" from-port="0" to-layer="2199" to-port="2"/>
		<edge from-layer="2199" from-port="3" to-layer="2200" to-port="1"/>
		<edge from-layer="2200" from-port="2" to-layer="2202" to-port="0"/>
		<edge from-layer="2201" from-port="0" to-layer="2202" to-port="1"/>
		<edge from-layer="2202" from-port="2" to-layer="2209" to-port="0"/>
		<edge from-layer="2203" from-port="0" to-layer="2206" to-port="1"/>
		<edge from-layer="2204" from-port="0" to-layer="2206" to-port="2"/>
		<edge from-layer="2205" from-port="0" to-layer="2206" to-port="3"/>
		<edge from-layer="2206" from-port="4" to-layer="2207" to-port="0"/>
		<edge from-layer="2207" from-port="1" to-layer="2212" to-port="0"/>
		<edge from-layer="2207" from-port="1" to-layer="2208" to-port="0"/>
		<edge from-layer="2208" from-port="1" to-layer="2209" to-port="1"/>
		<edge from-layer="2209" from-port="2" to-layer="2213" to-port="0"/>
		<edge from-layer="2209" from-port="2" to-layer="2210" to-port="0"/>
		<edge from-layer="2210" from-port="2" to-layer="2211" to-port="1"/>
		<edge from-layer="2211" from-port="2" to-layer="2276" to-port="0"/>
		<edge from-layer="2211" from-port="2" to-layer="2216" to-port="0"/>
		<edge from-layer="2212" from-port="1" to-layer="2213" to-port="1"/>
		<edge from-layer="2213" from-port="2" to-layer="2215" to-port="0"/>
		<edge from-layer="2213" from-port="2" to-layer="2275" to-port="0"/>
		<edge from-layer="2214" from-port="0" to-layer="2215" to-port="1"/>
		<edge from-layer="2215" from-port="2" to-layer="2216" to-port="1"/>
		<edge from-layer="2216" from-port="2" to-layer="2218" to-port="0"/>
		<edge from-layer="2216" from-port="2" to-layer="2220" to-port="0"/>
		<edge from-layer="2217" from-port="0" to-layer="2218" to-port="1"/>
		<edge from-layer="2218" from-port="2" to-layer="2224" to-port="0"/>
		<edge from-layer="2219" from-port="0" to-layer="2221" to-port="0"/>
		<edge from-layer="2220" from-port="1" to-layer="2221" to-port="1"/>
		<edge from-layer="2221" from-port="2" to-layer="2223" to-port="0"/>
		<edge from-layer="2222" from-port="0" to-layer="2223" to-port="1"/>
		<edge from-layer="2223" from-port="2" to-layer="2224" to-port="1"/>
		<edge from-layer="2224" from-port="2" to-layer="2226" to-port="0"/>
		<edge from-layer="2225" from-port="0" to-layer="2226" to-port="1"/>
		<edge from-layer="2226" from-port="2" to-layer="2235" to-port="0"/>
		<edge from-layer="2226" from-port="2" to-layer="2228" to-port="0"/>
		<edge from-layer="2227" from-port="0" to-layer="2228" to-port="1"/>
		<edge from-layer="2228" from-port="2" to-layer="2239" to-port="0"/>
		<edge from-layer="2229" from-port="0" to-layer="2231" to-port="1"/>
		<edge from-layer="2230" from-port="0" to-layer="2231" to-port="2"/>
		<edge from-layer="2231" from-port="3" to-layer="2232" to-port="0"/>
		<edge from-layer="2232" from-port="1" to-layer="2234" to-port="0"/>
		<edge from-layer="2233" from-port="0" to-layer="2234" to-port="1"/>
		<edge from-layer="2234" from-port="2" to-layer="2236" to-port="0"/>
		<edge from-layer="2235" from-port="1" to-layer="2236" to-port="1"/>
		<edge from-layer="2236" from-port="2" to-layer="2238" to-port="0"/>
		<edge from-layer="2237" from-port="0" to-layer="2238" to-port="1"/>
		<edge from-layer="2238" from-port="2" to-layer="2239" to-port="1"/>
		<edge from-layer="2239" from-port="2" to-layer="2241" to-port="0"/>
		<edge from-layer="2240" from-port="0" to-layer="2241" to-port="1"/>
		<edge from-layer="2241" from-port="2" to-layer="2243" to-port="0"/>
		<edge from-layer="2242" from-port="0" to-layer="2243" to-port="1"/>
		<edge from-layer="2243" from-port="2" to-layer="2304" to-port="1"/>
		<edge from-layer="2244" from-port="0" to-layer="2245" to-port="1"/>
		<edge from-layer="2245" from-port="2" to-layer="2246" to-port="1"/>
		<edge from-layer="2246" from-port="2" to-layer="2250" to-port="0"/>
		<edge from-layer="2246" from-port="2" to-layer="2248" to-port="0"/>
		<edge from-layer="2247" from-port="0" to-layer="2248" to-port="1"/>
		<edge from-layer="2248" from-port="2" to-layer="2254" to-port="0"/>
		<edge from-layer="2249" from-port="0" to-layer="2251" to-port="0"/>
		<edge from-layer="2250" from-port="1" to-layer="2251" to-port="1"/>
		<edge from-layer="2251" from-port="2" to-layer="2253" to-port="0"/>
		<edge from-layer="2252" from-port="0" to-layer="2253" to-port="1"/>
		<edge from-layer="2253" from-port="2" to-layer="2254" to-port="1"/>
		<edge from-layer="2254" from-port="2" to-layer="2256" to-port="0"/>
		<edge from-layer="2255" from-port="0" to-layer="2256" to-port="1"/>
		<edge from-layer="2256" from-port="2" to-layer="2265" to-port="0"/>
		<edge from-layer="2256" from-port="2" to-layer="2258" to-port="0"/>
		<edge from-layer="2257" from-port="0" to-layer="2258" to-port="1"/>
		<edge from-layer="2258" from-port="2" to-layer="2269" to-port="0"/>
		<edge from-layer="2259" from-port="0" to-layer="2261" to-port="1"/>
		<edge from-layer="2260" from-port="0" to-layer="2261" to-port="2"/>
		<edge from-layer="2261" from-port="3" to-layer="2262" to-port="0"/>
		<edge from-layer="2262" from-port="1" to-layer="2264" to-port="0"/>
		<edge from-layer="2263" from-port="0" to-layer="2264" to-port="1"/>
		<edge from-layer="2264" from-port="2" to-layer="2266" to-port="0"/>
		<edge from-layer="2265" from-port="1" to-layer="2266" to-port="1"/>
		<edge from-layer="2266" from-port="2" to-layer="2268" to-port="0"/>
		<edge from-layer="2267" from-port="0" to-layer="2268" to-port="1"/>
		<edge from-layer="2268" from-port="2" to-layer="2269" to-port="1"/>
		<edge from-layer="2269" from-port="2" to-layer="2271" to-port="0"/>
		<edge from-layer="2270" from-port="0" to-layer="2271" to-port="1"/>
		<edge from-layer="2271" from-port="2" to-layer="2273" to-port="0"/>
		<edge from-layer="2272" from-port="0" to-layer="2273" to-port="1"/>
		<edge from-layer="2273" from-port="2" to-layer="2304" to-port="2"/>
		<edge from-layer="2274" from-port="0" to-layer="2275" to-port="1"/>
		<edge from-layer="2275" from-port="2" to-layer="2276" to-port="1"/>
		<edge from-layer="2276" from-port="2" to-layer="2278" to-port="0"/>
		<edge from-layer="2276" from-port="2" to-layer="2280" to-port="0"/>
		<edge from-layer="2277" from-port="0" to-layer="2278" to-port="1"/>
		<edge from-layer="2278" from-port="2" to-layer="2284" to-port="0"/>
		<edge from-layer="2279" from-port="0" to-layer="2281" to-port="0"/>
		<edge from-layer="2280" from-port="1" to-layer="2281" to-port="1"/>
		<edge from-layer="2281" from-port="2" to-layer="2283" to-port="0"/>
		<edge from-layer="2282" from-port="0" to-layer="2283" to-port="1"/>
		<edge from-layer="2283" from-port="2" to-layer="2284" to-port="1"/>
		<edge from-layer="2284" from-port="2" to-layer="2286" to-port="0"/>
		<edge from-layer="2285" from-port="0" to-layer="2286" to-port="1"/>
		<edge from-layer="2286" from-port="2" to-layer="2288" to-port="0"/>
		<edge from-layer="2286" from-port="2" to-layer="2295" to-port="0"/>
		<edge from-layer="2287" from-port="0" to-layer="2288" to-port="1"/>
		<edge from-layer="2288" from-port="2" to-layer="2299" to-port="0"/>
		<edge from-layer="2289" from-port="0" to-layer="2291" to-port="1"/>
		<edge from-layer="2290" from-port="0" to-layer="2291" to-port="2"/>
		<edge from-layer="2291" from-port="3" to-layer="2292" to-port="0"/>
		<edge from-layer="2292" from-port="1" to-layer="2294" to-port="0"/>
		<edge from-layer="2293" from-port="0" to-layer="2294" to-port="1"/>
		<edge from-layer="2294" from-port="2" to-layer="2296" to-port="0"/>
		<edge from-layer="2295" from-port="1" to-layer="2296" to-port="1"/>
		<edge from-layer="2296" from-port="2" to-layer="2298" to-port="0"/>
		<edge from-layer="2297" from-port="0" to-layer="2298" to-port="1"/>
		<edge from-layer="2298" from-port="2" to-layer="2299" to-port="1"/>
		<edge from-layer="2299" from-port="2" to-layer="2301" to-port="0"/>
		<edge from-layer="2300" from-port="0" to-layer="2301" to-port="1"/>
		<edge from-layer="2301" from-port="2" to-layer="2303" to-port="0"/>
		<edge from-layer="2302" from-port="0" to-layer="2303" to-port="1"/>
		<edge from-layer="2303" from-port="2" to-layer="2304" to-port="3"/>
		<edge from-layer="2304" from-port="4" to-layer="2305" to-port="0"/>
		<edge from-layer="2305" from-port="2" to-layer="2306" to-port="4"/>
		<edge from-layer="2306" from-port="5" to-layer="2308" to-port="0"/>
		<edge from-layer="2307" from-port="0" to-layer="2308" to-port="1"/>
		<edge from-layer="2308" from-port="2" to-layer="2339" to-port="0"/>
		<edge from-layer="2309" from-port="0" to-layer="2310" to-port="2"/>
		<edge from-layer="2310" from-port="3" to-layer="2319" to-port="0"/>
		<edge from-layer="2311" from-port="0" to-layer="2312" to-port="2"/>
		<edge from-layer="2312" from-port="3" to-layer="2319" to-port="1"/>
		<edge from-layer="2313" from-port="0" to-layer="2314" to-port="2"/>
		<edge from-layer="2314" from-port="3" to-layer="2319" to-port="2"/>
		<edge from-layer="2315" from-port="0" to-layer="2316" to-port="2"/>
		<edge from-layer="2316" from-port="3" to-layer="2319" to-port="3"/>
		<edge from-layer="2317" from-port="0" to-layer="2318" to-port="2"/>
		<edge from-layer="2318" from-port="3" to-layer="2319" to-port="4"/>
		<edge from-layer="2319" from-port="5" to-layer="2335" to-port="0"/>
		<edge from-layer="2320" from-port="0" to-layer="2321" to-port="2"/>
		<edge from-layer="2321" from-port="3" to-layer="2330" to-port="0"/>
		<edge from-layer="2322" from-port="0" to-layer="2323" to-port="2"/>
		<edge from-layer="2323" from-port="3" to-layer="2330" to-port="1"/>
		<edge from-layer="2324" from-port="0" to-layer="2325" to-port="2"/>
		<edge from-layer="2325" from-port="3" to-layer="2330" to-port="2"/>
		<edge from-layer="2326" from-port="0" to-layer="2327" to-port="2"/>
		<edge from-layer="2327" from-port="3" to-layer="2330" to-port="3"/>
		<edge from-layer="2328" from-port="0" to-layer="2329" to-port="2"/>
		<edge from-layer="2329" from-port="3" to-layer="2330" to-port="4"/>
		<edge from-layer="2330" from-port="5" to-layer="2331" to-port="0"/>
		<edge from-layer="2330" from-port="5" to-layer="2334" to-port="0"/>
		<edge from-layer="2331" from-port="1" to-layer="2333" to-port="0"/>
		<edge from-layer="2332" from-port="0" to-layer="2333" to-port="1"/>
		<edge from-layer="2333" from-port="2" to-layer="2334" to-port="1"/>
		<edge from-layer="2334" from-port="2" to-layer="2335" to-port="1"/>
		<edge from-layer="2335" from-port="2" to-layer="2336" to-port="0"/>
		<edge from-layer="2335" from-port="2" to-layer="2365" to-port="0"/>
		<edge from-layer="2336" from-port="1" to-layer="2338" to-port="0"/>
		<edge from-layer="2336" from-port="1" to-layer="2345" to-port="0"/>
		<edge from-layer="2336" from-port="1" to-layer="2352" to-port="1"/>
		<edge from-layer="2337" from-port="0" to-layer="2338" to-port="1"/>
		<edge from-layer="2338" from-port="2" to-layer="2339" to-port="1"/>
		<edge from-layer="2339" from-port="2" to-layer="2341" to-port="0"/>
		<edge from-layer="2340" from-port="0" to-layer="2341" to-port="1"/>
		<edge from-layer="2341" from-port="2" to-layer="2363" to-port="0"/>
		<edge from-layer="2341" from-port="2" to-layer="2406" to-port="0"/>
		<edge from-layer="2341" from-port="2" to-layer="2357" to-port="0"/>
		<edge from-layer="2342" from-port="0" to-layer="2346" to-port="0"/>
		<edge from-layer="2343" from-port="0" to-layer="2345" to-port="1"/>
		<edge from-layer="2344" from-port="0" to-layer="2345" to-port="2"/>
		<edge from-layer="2345" from-port="3" to-layer="2346" to-port="1"/>
		<edge from-layer="2346" from-port="2" to-layer="2347" to-port="0"/>
		<edge from-layer="2347" from-port="1" to-layer="2349" to-port="0"/>
		<edge from-layer="2348" from-port="0" to-layer="2349" to-port="1"/>
		<edge from-layer="2349" from-port="2" to-layer="2351" to-port="0"/>
		<edge from-layer="2350" from-port="0" to-layer="2351" to-port="1"/>
		<edge from-layer="2351" from-port="2" to-layer="2352" to-port="0"/>
		<edge from-layer="2352" from-port="2" to-layer="2354" to-port="0"/>
		<edge from-layer="2353" from-port="0" to-layer="2354" to-port="1"/>
		<edge from-layer="2354" from-port="2" to-layer="2355" to-port="0"/>
		<edge from-layer="2354" from-port="2" to-layer="2421" to-port="0"/>
		<edge from-layer="2355" from-port="1" to-layer="2360" to-port="0"/>
		<edge from-layer="2356" from-port="0" to-layer="2357" to-port="1"/>
		<edge from-layer="2357" from-port="2" to-layer="2359" to-port="0"/>
		<edge from-layer="2358" from-port="0" to-layer="2359" to-port="1"/>
		<edge from-layer="2359" from-port="2" to-layer="2360" to-port="1"/>
		<edge from-layer="2360" from-port="2" to-layer="2362" to-port="0"/>
		<edge from-layer="2361" from-port="0" to-layer="2362" to-port="1"/>
		<edge from-layer="2362" from-port="2" to-layer="2363" to-port="1"/>
		<edge from-layer="2363" from-port="2" to-layer="2368" to-port="0"/>
		<edge from-layer="2364" from-port="0" to-layer="2365" to-port="1"/>
		<edge from-layer="2365" from-port="2" to-layer="2367" to-port="0"/>
		<edge from-layer="2366" from-port="0" to-layer="2367" to-port="1"/>
		<edge from-layer="2367" from-port="2" to-layer="2368" to-port="1"/>
		<edge from-layer="2368" from-port="2" to-layer="2378" to-port="0"/>
		<edge from-layer="2368" from-port="2" to-layer="2409" to-port="0"/>
		<edge from-layer="2368" from-port="2" to-layer="2372" to-port="0"/>
		<edge from-layer="2369" from-port="0" to-layer="2372" to-port="1"/>
		<edge from-layer="2370" from-port="0" to-layer="2372" to-port="2"/>
		<edge from-layer="2371" from-port="0" to-layer="2372" to-port="3"/>
		<edge from-layer="2372" from-port="4" to-layer="2374" to-port="0"/>
		<edge from-layer="2373" from-port="0" to-layer="2374" to-port="1"/>
		<edge from-layer="2374" from-port="2" to-layer="2384" to-port="0"/>
		<edge from-layer="2375" from-port="0" to-layer="2378" to-port="1"/>
		<edge from-layer="2376" from-port="0" to-layer="2378" to-port="2"/>
		<edge from-layer="2377" from-port="0" to-layer="2378" to-port="3"/>
		<edge from-layer="2378" from-port="4" to-layer="2380" to-port="0"/>
		<edge from-layer="2379" from-port="0" to-layer="2380" to-port="1"/>
		<edge from-layer="2380" from-port="2" to-layer="2392" to-port="0"/>
		<edge from-layer="2380" from-port="2" to-layer="2384" to-port="1"/>
		<edge from-layer="2381" from-port="0" to-layer="2384" to-port="2"/>
		<edge from-layer="2382" from-port="0" to-layer="2384" to-port="3"/>
		<edge from-layer="2383" from-port="0" to-layer="2384" to-port="4"/>
		<edge from-layer="2384" from-port="5" to-layer="2388" to-port="0"/>
		<edge from-layer="2385" from-port="0" to-layer="2388" to-port="1"/>
		<edge from-layer="2386" from-port="0" to-layer="2388" to-port="2"/>
		<edge from-layer="2387" from-port="0" to-layer="2388" to-port="3"/>
		<edge from-layer="2388" from-port="4" to-layer="2390" to-port="0"/>
		<edge from-layer="2389" from-port="0" to-layer="2390" to-port="1"/>
		<edge from-layer="2390" from-port="2" to-layer="2393" to-port="0"/>
		<edge from-layer="2390" from-port="2" to-layer="2403" to-port="0"/>
		<edge from-layer="2391" from-port="0" to-layer="2392" to-port="1"/>
		<edge from-layer="2392" from-port="2" to-layer="2395" to-port="0"/>
		<edge from-layer="2393" from-port="1" to-layer="2395" to-port="1"/>
		<edge from-layer="2394" from-port="0" to-layer="2395" to-port="2"/>
		<edge from-layer="2395" from-port="3" to-layer="2396" to-port="0"/>
		<edge from-layer="2395" from-port="3" to-layer="2401" to-port="0"/>
		<edge from-layer="2396" from-port="1" to-layer="2398" to-port="0"/>
		<edge from-layer="2397" from-port="0" to-layer="2398" to-port="1"/>
		<edge from-layer="2398" from-port="2" to-layer="2400" to-port="0"/>
		<edge from-layer="2399" from-port="0" to-layer="2400" to-port="1"/>
		<edge from-layer="2400" from-port="2" to-layer="2401" to-port="1"/>
		<edge from-layer="2401" from-port="3" to-layer="2403" to-port="1"/>
		<edge from-layer="2402" from-port="0" to-layer="2403" to-port="2"/>
		<edge from-layer="2403" from-port="3" to-layer="2419" to-port="0"/>
		<edge from-layer="2403" from-port="3" to-layer="2404" to-port="0"/>
		<edge from-layer="2403" from-port="3" to-layer="2407" to-port="0"/>
		<edge from-layer="2404" from-port="1" to-layer="2406" to-port="1"/>
		<edge from-layer="2405" from-port="0" to-layer="2406" to-port="2"/>
		<edge from-layer="2406" from-port="3" to-layer="2418" to-port="0"/>
		<edge from-layer="2407" from-port="1" to-layer="2409" to-port="1"/>
		<edge from-layer="2408" from-port="0" to-layer="2409" to-port="2"/>
		<edge from-layer="2409" from-port="3" to-layer="2413" to-port="0"/>
		<edge from-layer="2410" from-port="0" to-layer="2413" to-port="1"/>
		<edge from-layer="2411" from-port="0" to-layer="2413" to-port="2"/>
		<edge from-layer="2412" from-port="0" to-layer="2413" to-port="3"/>
		<edge from-layer="2413" from-port="4" to-layer="2415" to-port="0"/>
		<edge from-layer="2414" from-port="0" to-layer="2415" to-port="1"/>
		<edge from-layer="2415" from-port="2" to-layer="2417" to-port="0"/>
		<edge from-layer="2416" from-port="0" to-layer="2417" to-port="1"/>
		<edge from-layer="2417" from-port="2" to-layer="2418" to-port="1"/>
		<edge from-layer="2418" from-port="2" to-layer="2425" to-port="0"/>
		<edge from-layer="2419" from-port="1" to-layer="2421" to-port="1"/>
		<edge from-layer="2420" from-port="0" to-layer="2421" to-port="2"/>
		<edge from-layer="2421" from-port="3" to-layer="2422" to-port="0"/>
		<edge from-layer="2422" from-port="1" to-layer="2424" to-port="0"/>
		<edge from-layer="2423" from-port="0" to-layer="2424" to-port="1"/>
		<edge from-layer="2424" from-port="2" to-layer="2425" to-port="1"/>
		<edge from-layer="2425" from-port="2" to-layer="2428" to-port="0"/>
		<edge from-layer="2425" from-port="2" to-layer="2436" to-port="0"/>
		<edge from-layer="2426" from-port="0" to-layer="2428" to-port="1"/>
		<edge from-layer="2427" from-port="0" to-layer="2428" to-port="2"/>
		<edge from-layer="2428" from-port="3" to-layer="2429" to-port="0"/>
		<edge from-layer="2429" from-port="1" to-layer="2431" to-port="0"/>
		<edge from-layer="2430" from-port="0" to-layer="2431" to-port="1"/>
		<edge from-layer="2431" from-port="2" to-layer="2432" to-port="0"/>
		<edge from-layer="2433" from-port="0" to-layer="2436" to-port="1"/>
		<edge from-layer="2434" from-port="0" to-layer="2436" to-port="2"/>
		<edge from-layer="2435" from-port="0" to-layer="2436" to-port="3"/>
		<edge from-layer="2436" from-port="4" to-layer="2437" to-port="0"/>
	</edges>
	<meta_data>
		<MO_version value="2022.1.0-6910-173f328c53d"/>
		<Runtime_version value="2022.1.0-6910-173f328c53d"/>
		<legacy_path value="False"/>
		<cli_parameters>
			<caffe_parser_path value="DIR"/>
			<compress_fp16 value="False"/>
			<data_type value="FP32"/>
			<disable_nhwc_to_nchw value="False"/>
			<disable_omitting_optional value="False"/>
			<disable_resnet_optimization value="False"/>
			<disable_weights_compression value="False"/>
			<enable_concat_optimization value="False"/>
			<enable_flattening_nested_params value="False"/>
			<enable_ssd_gluoncv value="False"/>
			<extensions value="DIR"/>
			<framework value="onnx"/>
			<freeze_placeholder_with_value value="{}"/>
			<generate_deprecated_IR_V7 value="False"/>
			<input value="image"/>
			<input_model value="DIR/model.onnx"/>
			<input_model_is_text value="False"/>
			<input_shape value="[1,3,480,864]"/>
			<k value="DIR/CustomLayersMapping.xml"/>
			<keep_shape_ops value="True"/>
			<layout value="image(nchw)"/>
			<layout_values value="{'image': {'source_layout': 'nchw', 'target_layout': None, 'is_input': True}}"/>
			<legacy_ir_generation value="False"/>
			<legacy_mxnet_model value="False"/>
			<log_level value="ERROR"/>
			<mean_scale_values value="{'image': {'mean': None, 'scale': array([255.])}}"/>
			<mean_values value="()"/>
			<model_name value="person-detection-0203"/>
			<output value="['boxes', 'labels']"/>
			<output_dir value="DIR"/>
			<placeholder_data_types value="{}"/>
			<placeholder_shapes value="{'image': (1, 3, 480, 864)}"/>
			<progress value="False"/>
			<remove_memory value="False"/>
			<remove_output_softmax value="False"/>
			<reverse_input_channels value="True"/>
			<save_params_from_nd value="False"/>
			<scale_values value="image[255.0]"/>
			<silent value="False"/>
			<source_layout value="()"/>
			<static_shape value="False"/>
			<stream_output value="False"/>
			<target_layout value="()"/>
			<transform value=""/>
			<use_legacy_frontend value="False"/>
			<use_new_frontend value="False"/>
			<unset unset_cli_parameters="batch, counts, disable_fusing, disable_gfusing, finegrain_fusing, input_checkpoint, input_meta_graph, input_proto, input_symbol, mean_file, mean_file_offsets, move_to_preprocess, nd_prefix_name, pretrained_model_name, saved_model_dir, saved_model_tags, scale, tensorboard_logdir, tensorflow_custom_layer_libraries, tensorflow_custom_operations_config_update, tensorflow_object_detection_api_pipeline_config, tensorflow_use_custom_operations_config, transformations_config"/>
		</cli_parameters>
	</meta_data>
</net>
